models/LSTM_1.pt (torch_old, 190207 bytes, 8 tensors)

lstm.weight_ih_l0 f4 [400, 1]
00000000: bce9 71be 37c1 be3d c230 583c 61ee 9f3d
00000010: a891 1a3e 4d38 da3d 8e01 4e3e 4bbb aa3d
00000020: f2f2 db3a df1b a4be 0a9b fbbd 377e 8e3e
00000030: 1954 cb3d eb7c 163d 18a1 c8bc 92d0 82bd
00000040: 9772 bb3d 9012 6bbe d38b 3ebe 48af 993c
00000050: 01a0 f03c 9f29 61bd 06dc 363e 8ef4 183d
00000060: 59cb 403e 6745 a2bb 07d8 4b3e 7b51 ec3c
00000070: fb74 693d e96b 81bc f091 adbd 94db 123c
00000080: 87cc 0cbd 0083 e53c bf19 85be 75c4 99bb
00000090: 3e15 bb3d 421e 5e3d 220b 313e 80b1 8fbd
000000a0: 1c7c 94be a3ff 35be ee08 04bd 2841 99be
000000b0: b777 883d 3d44 f73d 4473 823d 5404 0a3e
000000c0: 98a9 5e3e efce 9d3c fb53 453e ebe4 2c3e
000000d0: 2f00 1fbd 216c 2b3e b44e c63d 7f71 243e
000000e0: a6e7 b1bc 5f19 a63d ab4c d33d 394e c93d
000000f0: 5fa3 4e3d 5748 bd3d c7f4 86be 1b69 1d3d
00000100: 98b7 d83d a055 193e a178 233c cfd0 363d
00000110: 9232 c53d 6491 3c3e 5b19 d83d 907b a1ba
00000120: cb42 963d c064 e53d 1597 3bbe 4c27 223e
00000130: ac06 7dbc cda8 033e a4eb 1f3f ac6d 103d
00000140: 3aa3 603d ab0d 163e 694a 84bd c166 c9be
00000150: cfb9 c7bb 6d6b a7be e957 24be 6f72 893d
00000160: 922d 6a3e 396b 7f3e 56d2 0d3e 9816 df3d
00000170: 1e1e 7f3c fb66 ef3d b6ee 37be 3e4a fdbd
00000180: bf3f da3d bce8 3d3e 0941 3f3e 558d b43d
00000190: 4772 5fbe 6155 a43d 7f05 983d 060d 483e
000001a0: 0d63 2c3e 00d4 193e 18c3 ca3d 8ba8 a43d
000001b0: 3509 ea3d d9a5 91bd 2b69 c1bd 70e2 983e
000001c0: f5b0 083d af2e 663d af3a a23d e443 03be
000001d0: ed87 423e 951c 5bbe 956e 7dbd c257 e33e
000001e0: c94c 963d 740b ab3c de0e 613e 6ee8 043e
000001f0: b0eb 1a3e e0e7 0dbe 37d7 cd3d 3b38 403e
00000200: e1bd b33d 4ea0 f43d c9fd 9dbc 48c9 0a3d
00000210: 54cf 2fbe 3358 5c3e b046 76be 2abd 8e3d
00000220: f801 e7ba 5637 0b3e 66fb ed3d 7c26 34be
00000230: 9128 08be 88da c5bd 269d 8a3d 9655 5fbe
00000240: 97b7 8e3c 2e5a 263e 8947 5c3e 1c73 903d
00000250: aeeb 7b3c 6244 8c3c 8e41 f13d 8b66 423e
00000260: 2dfb 2f3d 6088 b2bc e85e 283e f2bb b73d
00000270: 6085 8e3c 0c8b 4c3e f2a3 573e f4de 203e
00000280: 76b4 aa3d c48b 9abe 0320 3dbe b860 323e
00000290: 20cd c93e dc66 593e 081c 013e 05e7 3f3e
000002a0: 08a0 dc3d 0ec1 4d3d 07b0 db3d d677 283d
000002b0: 5b90 5e3e 83fe 0a3e b1e9 17be 9974 bb3d
000002c0: 43c9 97bc abed 2f3d fe8e c13e 5889 593d
000002d0: aa1e 933d a44c 063e 93d2 333e f935 90bd
000002e0: a07d d93c 39b7 e3bc 4e3d c9bd 5a0f b1bc
000002f0: 63f2 ab3e 3a91 363e a2f9 383d bfcc ce3c
00000300: 1354 8e3e 512c 843e e002 d13c 9fd5 47bd
00000310: e871 023e e91c 433e 9b43 c73d a96f 1d3e
00000320: 6be7 933e 35cb 68be a646 68be e081 0f3d
00000330: 9d09 f3bc ba31 083e 7752 0e3e 04bb 4dbe
00000340: 7c4d 6c3d 90e4 60be 32f2 bd3c 05da 373e
00000350: 8c38 3d3e e1af 943d 8504 0cbe b8f9 9d3e
00000360: 2aa1 6dbd 1020 94be 722c c33d df4c 8d3e
00000370: e420 76bd c81b c8bd 5865 49be e8a4 cb3c
00000380: c522 3e3e aa53 41be bc4f a3bc eab2 e2bd
00000390: 4c14 5bbe 446b 7e3e efed 043e 6bb9 393d
000003a0: 601c 013e b4a6 353e 461c b03e 8729 c3bd
000003b0: 8abd 133e 25f7 65be 6578 0dbd e0c2 8f3d
000003c0: 09c2 433e 0c75 8f3d 80bb 063d 0fe5 483e
000003d0: 5b45 90be 353a 203e be04 12be 8d61 4e3e
000003e0: 2c9e b2be ca57 3e3e d050 74be 41bf 29be
000003f0: c4e1 59bd 955e 093e 9a42 47be c596 4e3e
-0.23624319 0.093141966 0.0131952185 0.07809139 0.15094626 0.1065527 0.2011778 0.083365045
0.0016780777 -0.32052514 -0.12285431 0.2783067 0.0992815 0.036740225 -0.024490878 -0.06387438
0.09152716 -0.229563 -0.18608026 0.018760338 0.02937317 -0.054971334 0.1785737 0.0373426
0.18827571 -0.004952121 0.19906627 0.028847447 0.056996327 -0.015798526 -0.08475101 0.008963484
-0.03437474 0.028016567 -0.25996205 -0.004692609 0.09134911 0.054228075 0.17289403 -0.07016277
-0.29000938 -0.17773299 -0.03223508 -0.29932523 0.06663459 0.12073562 0.063696414 0.13478214
0.21744382 0.019263713 0.19270317 0.168842 -0.038818534 0.16740467 0.0968298 0.1605892
-0.021716904 0.08110308 0.10317358 0.09829373 0.05044877 0.09242313 -0.26358625 0.038430315
0.10581893 0.1497407 0.009977491 0.04463273 0.09628786 0.18414837 0.10551711 -0.001232015
0.073369585 0.11200857 -0.18319352 0.15835303 -0.015443485 0.12857361 0.62468934 0.03526084
0.054843165 0.14653651 -0.06459505 -0.39336208 -0.006095148 -0.32699147 -0.1604916 0.067112796
0.22868946 0.24943246 0.13849768 0.10892981 0.015571145 0.11689564 -0.17962155 -0.12367676
0.1065669 0.18545812 0.18677153 0.088160194 -0.21820937 0.08024097 0.07422923 0.19536218
0.1683466 0.15022278 0.099004924 0.080399595 0.11427537 -0.07111711 -0.09443887 0.29860258
0.033371884 0.056196865 0.07921349 -0.12818867 0.18997164 -0.21397622 -0.061873037 0.4440289
0.07338864 0.020879485 0.21978328 0.1297929 0.1512897 -0.13857985 0.100508146 0.1877145
0.08776451 0.11944638 -0.019286053 0.033883363 -0.17168933 0.2151802 -0.24050403 0.06969674
-0.0017624488 0.13595328 0.11620216 -0.17592806 -0.13296725 -0.09660822 0.06768255 -0.21809992
0.017421527 0.16245338 0.21511663 0.07053205 0.015376015 0.017122451 0.11780082 0.1898443
0.04296415 -0.021793544 0.16442454 0.089713946 0.017397583 0.19974917 0.21058634 0.1571005
0.083352014 -0.30184758 -0.18469243 0.17419708 0.3941431 0.21230644 0.1260835 0.1874047
0.10772711 0.05023294 0.10726934 0.04112991 0.21734755 0.13573651 -0.1483524 0.091530986
-0.018528586 0.042951267 0.37804407 0.053109497 0.07183583 0.13115174 0.17560796 -0.070415445
0.02654916 -0.027797328 -0.09826146 -0.021613766 0.33583364 0.17828837 0.045159943 0.025244115
0.2779852 0.2581506 0.025514066 -0.04878771 0.12738764 0.19053997 0.097296916 0.15374626
0.28887495 -0.22733767 -0.226832 0.035035968 -0.02966767 0.13300219 0.13898645 -0.20090872
0.057691082 -0.2196219 0.023186777 0.17954262 0.18478602 0.07260109 -0.13673599 0.30854583
-0.058015026 -0.28930712 0.09529962 0.2759771 -0.06008996 -0.09770924 -0.19667566 0.024858907
0.18567951 -0.18879572 -0.019935481 -0.110692814 -0.21394461 0.24845606 0.1298139 0.045342844
0.1260848 0.17739373 0.3439657 -0.09529405 0.14427772 -0.2245756 -0.034538645 0.07019591
0.19116987 0.07004747 0.032893658 0.19618629 -0.28177914 0.15647204 -0.14259622 0.201544
-0.348863 0.18588176 -0.23858953 -0.16576864 -0.053193823 0.13414986 -0.19459 0.20174702

lstm.weight_hh_l0 f4 [400, 100]
00000000: 52d9 e8bb 52a6 ae3d 8185 9dbc 6de8 b43d
00000010: e546 f63c b1be 853d 9515 43bc 43e3 f3bb
00000020: 00af bc3d 6aa9 173d 44ab a8bd 7d9f b4bd
00000030: 4232 16bd b566 5ebd 14de 79bd 3123 20be
00000040: 12ee 18bd a70b 0d3e 6cb3 bdbd 463c bdbd
00000050: 2f7a 583d e2a5 4bbb 6a12 9c3a 1d9e d93d
00000060: bc57 4cbd a695 b53c 88df 5d3a d05c b7bd
00000070: 1cc4 a23d 398d d8bd 1187 0a3d 5f38 a43a
00000080: 2748 483d 7d54 673c 8851 d4bd 47ec 8fbd
00000090: 7d8d 10be c59f ac3d 7e2c 973d f707 b5bb
000000a0: cd98 04be 4082 26bd c346 eabd 0a16 1bbe
000000b0: ffa0 f63b 8859 5fbd 3f74 b4bd 9d05 25bd
000000c0: 4e34 92bb df8d 7e3d f826 2e3d bc41 c13d
000000d0: 58aa d63d 0b01 d9bd 8c87 7f3d 5b6c 4abc
000000e0: ca97 7c3d f196 d33d ece6 d0bd 5dbd cb3d
000000f0: c184 b23d 73c1 4dbe 27ac 8c3d 0200 76bd
00000100: 3e74 1dbe 5dec c0bc cedc 60bc b8a8 30bd
00000110: d21b 45bd 6f4f 12bd bfba 5c3d b8cc 123e
00000120: 6341 acbd eb9e f1bb b07e bfbd a418 cf3b
00000130: 7bb5 a2bc ac77 c7bd 3b08 b73d ab14 a4bd
00000140: 370b 3cbd 2afd 22bd 2a70 83bd ec5b ab3d
00000150: c586 81bd c9a1 07be 01f7 563e fee4 933c
00000160: b817 003e bb47 1dbd f4a1 42bd 8747 823d
00000170: df4a 66bd 8bfd 55bd c92b afbd e56b a13d
00000180: d80a 9a3c 3cba 733b c8da 693d 4f27 2e3d
00000190: e1e9 02be 9f57 6a3d 5dda 1d3d 86ff 083b
000001a0: e2c7 5a3d b500 17bd 0c25 d13d 947a 543c
000001b0: 3748 0e3e 1742 2f3e 760e cfbd 0051 44bc
000001c0: 75ce a63d 4add 3dbd c02e 3b3c 9c10 4cbe
000001d0: 5719 413c e02b a23d 1c47 26be 3cbb 44bc
000001e0: a1c3 193e 33ce a4bc 3fce b3bd a587 8b3d
000001f0: f39d 2cbe 037b 093d ee89 9c3d 9202 203d
00000200: ac3c 05bd 2316 10bd e6cd febd fc35 e6bd
00000210: df4d 56bd f73d bd3d 70e1 83bd 2cb5 d63d
00000220: 836b 36bd 089a cc3d 7b0b f4bd e88d 2f3d
00000230: 8cc6 923c cd45 293d 7ee0 793c 46ad f3bd
00000240: a8da 8f3d 197f 22bc 167c 85bd 16a8 b9bd
00000250: 8809 aa3d 5a40 bc3d 0b6e ac3d 1b0d 88bb
00000260: ae33 0fbd 3b2a 3d3d b3fc 55bd 96da cf3d
00000270: 1ee2 cbbc 8997 16bb 87cb 2abd 7262 bcbd
00000280: b5af 803d 96e8 803b e29d 073e fc66 aebd
00000290: 4e76 aabd 1413 21bd 692a 883c 9715 893d
000002a0: 3d59 053e f398 99bc 5b60 c8bd a77c 29bd
000002b0: b427 793d 645f 4c3d c555 51be 24d2 7f3d
000002c0: 1eb7 123e fec4 a9bc 0c47 8b3d 88bb 87bd
000002d0: 82ec b63d 5040 6abd 8617 3cbe b498 633e
000002e0: 890c aabc d159 cebd 82b4 413e e0a2 4bbc
000002f0: 6fa6 0e3d d386 02bd 282f 4dbd a8a6 b83c
00000300: beca 04bc d012 2d3c 71f0 0dbe 1631 143e
00000310: c053 d53d fead 51bd 23b2 48bc e2bd c7bc
00000320: e16e 3bbd 9545 b8bb 19fe 793d 9cf6 9c3d
00000330: 1e55 263d 2ec6 66bd fbd8 4eba 326e f1bd
00000340: f657 af3d 5735 dcbb ac98 9abb f57f c8bd
00000350: 4170 85bd 16e4 893d d611 85bd 4553 bdbd
00000360: 50b7 00be 9ddd e73d be64 fe3c c164 d4bd
00000370: d7a0 ed3c 0965 d23d e375 8abc f76c 84bd
00000380: 957b cabc 4abb 86bb 15ef f9bd faa0 36bd
00000390: 8dfa 63bd c461 c3bc 6bb5 913d 88ca 863d
000003a0: 4b76 babc 4025 923d bd99 0fbd 492a 843d
000003b0: d6b2 8c3d f01c 853d 2022 8f3d e4eb 83bd
000003c0: 8645 f5bd df32 323d 107b 6ebd df0b b3bd
000003d0: 26a0 f1bd 991a d63d 8706 85bd bc8e 913d
000003e0: b833 083b 231c 1bbd 4388 32bc 3d85 75bd
000003f0: 684c 8dbb 6fcc 813d 60c1 b4bd cadf d2bc
-0.0071059847 0.08527817 -0.019228699 0.08833394 0.030063102 0.06530512 -0.011907001 -0.007442863
0.09213066 0.0370268 -0.08235791 -0.088194825 -0.036669023 -0.054297168 -0.061002806 -0.15638424
-0.037336417 0.13773976 -0.09262738 -0.09240012 0.0528509 -0.0031074216 0.0011907343 0.10625861
-0.049888358 0.022166084 0.00084637897 -0.089532495 0.07947561 -0.10573811 0.033820216 0.0012529007
0.048896935 0.014119265 -0.10367113 -0.07027488 -0.14116473 0.08428911 0.07381533 -0.005524631
-0.12948914 -0.04065156 -0.11439278 -0.15145126 0.0075265164 -0.054528743 -0.08811235 -0.040288556
-0.0044618016 0.062147018 0.042517632 0.09436366 0.10481709 -0.10595902 0.062385127 -0.0123549355
0.061668195 0.10331524 -0.10200295 0.099482276 0.08716727 -0.20093326 0.06868773 -0.0600586
-0.15376374 -0.023550207 -0.013724519 -0.043129653 -0.048122235 -0.035720285 0.053889032 0.14335907
-0.08410909 -0.007373681 -0.093503356 0.006320076 -0.019861927 -0.097396225 0.08937117 -0.080117546
-0.045909133 -0.039792217 -0.06417878 0.08367142 -0.063245334 -0.1324531 0.20992662 0.018053528
0.12509048 -0.038398486 -0.04751773 0.06361299 -0.056223746 -0.05224375 -0.08553273 0.078819074
0.018803999 0.0037189862 0.05709341 0.042517956 -0.1278453 0.05721247 0.038538326 0.0020904257
0.05341328 -0.03686591 0.10212144 0.012968678 0.13894735 0.17115055 -0.1011018 -0.0119822025
0.08144847 -0.046353616 0.01142472 -0.19928211 0.011785827 0.07918525 -0.16238064 -0.012007531
0.15016033 -0.020117855 -0.08779573 0.068129815 -0.16857128 0.03356458 0.076434955 0.03906495
-0.032528564 -0.03517736 -0.12441616 -0.112407655 -0.052320357 0.092403345 -0.06439483 0.104837745
-0.044536125 0.09990317 -0.11916252 0.04285994 0.01791694 0.041326333 0.015251277 -0.11898284
0.07024127 -0.009917998 -0.06517808 -0.09065263 0.08302599 0.091919616 0.084194265 -0.004151953
-0.034961395 0.046182852 -0.052242946 0.10149114 -0.024888095 -0.0022978506 -0.041698005 -0.091984645
0.062835135 0.0039339764 0.13243821 -0.085157365 -0.08323346 -0.039324835 0.016621785 0.06693571
0.13022323 -0.01874969 -0.09784003 -0.041378643 0.06082888 0.04989566 -0.20442875 0.062456265
0.14327666 -0.020723816 0.068006605 -0.066275656 0.08931829 -0.05719024 -0.18368348 0.2222622
-0.02075793 -0.10075725 0.18916515 -0.012428969 0.034826692 -0.03186686 -0.0500938 0.022540405
-0.008104978 0.010563567 -0.13861252 0.1447185 0.10416365 -0.051191323 -0.012249502 -0.024382535
-0.04576004 -0.005623529 0.061033342 0.076642245 0.040608518 -0.056341343 -0.0007890609 -0.11788596
0.08561699 -0.006720226 -0.004717907 -0.09790031 -0.06515551 0.06732957 -0.064975426 -0.09244398
-0.12569928 0.11321566 0.031053897 -0.1037078 0.029007358 0.10273177 -0.016901916 -0.06466096
-0.024717132 -0.004111682 -0.122038044 -0.044587113 -0.055658866 -0.02385033 0.07114681 0.065815985
-0.022761485 0.07136011 -0.035058726 0.06453378 0.06870048 0.0649966 0.06988931 -0.06441477
-0.11976151 0.043505546 -0.05822283 -0.087424986 -0.11798124 0.10454292 -0.064953856 0.071073025
0.002078278 -0.03786863 -0.010896745 -0.05994152 -0.004312087 0.06337821 -0.08825946 -0.025741477

lstm.bias_ih_l0 f4 [400]
00000000: 4fa4 4fbc 3004 353e afde 89bc 7c8e d0bd
00000010: c9de 483d 32d1 ac3d 8db8 c43d 1400 793d
00000020: 08b0 76bd 6d86 7a3d e15c 7c3d 3ce1 033e
00000030: 398c a5bd a188 623d 92bd 5b3a df75 3a3e
00000040: 6c78 e03d 7de7 c0bc 9880 753d 69f5 093e
00000050: 44d2 fd3d a49c a9bd afdc 2a3e 48a7 95bc
00000060: f6d7 d93d d173 d43c d8e3 fbbc c910 593d
00000070: 1517 a6bd ff4a 9ebc a855 80bc f5d3 8cbd
00000080: 12a6 0d3d e47f e23d 9c3d c93d 4bea 3ebd
00000090: 849a 90ba 8be0 4bbd 8005 25bd 3912 bb3c
000000a0: bbbe 08bd a2bd 57ba 72f5 fd3c 282f 1ebd
000000b0: ff4c d03b 15b2 05bd 60b7 c53c e508 bf3d
000000c0: 74f2 66b9 78c7 8e3d 7982 d53d 117e 1abd
000000d0: 2d3c c2bd 77a0 873d f339 f43d 09a6 3abd
000000e0: 748d b1bc 99f8 aebd 5144 e73d fa5f fc3d
000000f0: e667 2cbd 57ea 963e 4efa 87bc 6833 db3d
00000100: 9177 273d 5d6d 803d 7188 2a3c 8e15 b6bd
00000110: 38a1 92bd 5e96 9cbd 16db b9bd 7cb9 d93d
00000120: 5732 67bd 43f2 c73d eb44 223e 28cf 5b3d
00000130: 9a41 95bd f108 84bd 2e54 5d3e cb79 db3d
00000140: 2c3b 683d fc7f 5cbd 6427 a33d 7243 54bc
00000150: c41f 66bc 17b4 01bd fec9 a13d 1762 bb3c
00000160: f6b4 c53d cc2c 483d 499d dc3d e718 2abd
00000170: 6795 15bd 353f de3d a560 84bd 0ee8 84bc
00000180: afdd 2cbc 9de0 b4bd e9a1 383c 09a7 363d
00000190: 590a 1b3d 6520 1f3e 0dd8 ea3b 4e54 bcbd
000001a0: 62b4 803c 0caf d43d 4a54 563d 5abd 823d
000001b0: 40a0 47bd 65da bc3d 36fd 06ba 8342 a73c
000001c0: 1c7e 50ba 474d 8f3d 5722 9dbc 70a9 8d3d
000001d0: f2df 4f3d d91a 453d 93da 543d e945 5f3e
000001e0: a114 f5bb 348d de3d 440b 283d 9416 25bd
000001f0: fc06 3e3e 5379 8cbd 0f55 dabc b833 6d3c
00000200: e492 ca3d fe94 8d3d 9c02 ac3d e524 6dbd
00000210: 8936 043d 3b88 043e 902b b0bc 3c0f 2b3d
00000220: f22f 27bd c68b 9ebc 560f 583d b983 b1bb
00000230: d07c 48bd 327d 4cbd d304 ab3d 55cb d43d
00000240: 720a 24bd b7a4 773b 96ad dc3d 85da 6e3c
00000250: f1a1 81bd f4bb adbd 7c47 97bc 7927 d23d
00000260: 5426 7c3d 86df 80bd f12b a13a ccf4 5fbc
00000270: 04d8 eb3d 82d4 1c3c dd3d d43c 2488 21bd
00000280: f0f7 cb3d dbc9 123e 4a24 dcbc 85f8 df3d
00000290: a8e9 1a3e 507e 44bd 7014 d83d a683 c53d
000002a0: 69c5 53bd 5657 d73d ec46 563d f48a af3d
000002b0: 1fd8 df3d 3fa2 643d 1260 123d 1ac0 833d
000002c0: 5326 f43d d3b4 3c3d 41e6 d9bc acb7 fd3c
000002d0: 5821 be3d 121a a83b 320d 4b3d 6b4e 783d
000002e0: 9122 c7bc 9247 7f3d 0ef5 3a3d 561c 54bc
000002f0: f721 a8bb 6118 863b 8591 033e 194a 8a3d
00000300: 700c a0bc e978 afbb 3b7e 73bd 7ccc 413d
00000310: 3604 2e3d 4a7f 97bd 50f1 d63d d698 363d
00000320: 2cae 263d a467 dcbc e7d7 62bd 7aff 8c3c
00000330: ed94 663b a7ad 61bd 1998 d53b ea8d db3c
00000340: 58f5 ad3d 32b7 6ebd 2ca1 debd e22f db3c
00000350: 23c9 903d bbbf 12bd a8f9 16bb da87 783d
00000360: b2f4 ae3b f13d afbb b4d5 95bc 9811 4ebc
00000370: fde2 fb3b 49c1 ae3d 3c7e 91bb e42f 563d
00000380: 5eb8 013d 982a 1b3d 976b 9ebd c006 e2bc
00000390: 1fd9 26bc fcbf b6bc 46b3 363c 1515 793c
000003a0: efad 8abd f4ea c4bc 07e3 5e3d fc2e 17bd
000003b0: 483c 9dbd cae3 9f3c 63fa acbd 9833 1fbd
000003c0: 45ba a4bd f5c8 b9bd 261f 19bd 41e3 d8bc
000003d0: f200 88bd e5b1 923d 6935 94bd 3513 c1bb
000003e0: ade8 46bd a4fe 3f3d 6a6e 6ebd 6c91 00bd
000003f0: 5e09 c53d e646 09bd 1bf3 05bd 8c10 81bd
-0.012673452 0.17677379 -0.016829817 -0.10183427 0.04904059 0.08438338 0.09605513 0.06079109
-0.06022647 0.061163355 0.061612014 0.12878889 -0.08083386 0.05530608 0.0008382435 0.18209027
0.10960469 -0.023547882 0.05993709 0.13472523 0.123936206 -0.0828183 0.16685747 -0.018268242
0.106368944 0.025934132 -0.030748293 0.052994523 -0.08109871 -0.01932287 -0.015665844 -0.06876365
0.034582205 0.110595495 0.09826204 -0.046610158 -0.0011032377 -0.049774688 -0.04028845 0.022835838
-0.03338502 -0.00082298566 0.031000827 -0.03861919 0.006356835 -0.032640535 0.024135292 0.09327868
-0.0002202483 0.069716394 0.10425276 -0.037717883 -0.09484134 0.06622403 0.119251154 -0.0455685
-0.021673895 -0.0854351 0.11292327 0.123229936 -0.042091273 0.29475662 -0.016598847 0.10703164
0.04088551 0.062708594 0.010408507 -0.0889083 -0.07159656 -0.07645868 -0.090749905 0.106310815
-0.056444492 0.09763005 0.15846603 0.053664356 -0.07287903 -0.06447018 0.21614143 0.107165895
0.056697056 -0.053832993 0.079664975 -0.012955533 -0.014045659 -0.031665888 0.07899855 0.022873921
0.09653656 0.048870847 0.10772187 -0.041527655 -0.036519434 0.108518995 -0.06463746 -0.016223934
-0.0105509 -0.08831904 0.011269071 0.04459289 0.037851665 0.15539701 0.0071668685 -0.09195767
0.015711013 0.1038495 0.052326478 0.06383772 -0.04873681 0.09221343 -0.00051494257 0.020417457
-0.0007953362 0.06997161 -0.019181414 0.06917083 0.05075068 0.048121307 0.05196626 0.21804012
-0.007479266 0.10866776 0.04102637 -0.040304735 0.18557352 -0.06859078 -0.026651887 0.014477663
0.098912984 0.06913184 0.08398935 -0.057896513 0.03227857 0.12942593 -0.021505147 0.041762576
-0.04081721 -0.019353759 0.052749 -0.005417314 -0.048947155 -0.049924083 0.083505295 0.10390345
-0.040049024 0.0037787387 0.107752964 0.014578466 -0.06329716 -0.08483115 -0.018466704 0.10261435
0.06155999 -0.06292634 0.0012296421 -0.013669204 0.11515811 0.00957215 0.025908405 -0.039436474
0.099594 0.14334814 -0.026872773 0.10936073 0.15128195 -0.047972023 0.10550773 0.096442506
-0.051701937 0.10514705 0.05231373 0.08571425 0.10929894 0.055818792 0.03573615 0.06433125
0.11921372 0.046070885 -0.026599051 0.03097137 0.092837036 0.005130061 0.04957313 0.06062166
-0.024308475 0.062324114 0.04564386 -0.012946209 -0.005131002 0.0040922617 0.1284848 0.06752414
-0.01953718 -0.00535499 -0.059446555 0.047314152 0.042484485 -0.07397325 0.104952455 0.04457935
0.040693447 -0.026904888 -0.05538168 0.017211664 0.0035183982 -0.05509725 0.0065183756 0.026801068
0.08494061 -0.058280177 -0.10870585 0.02675623 0.07069614 -0.03582738 -0.002303699 0.060676433
0.0053392285 -0.00534796 -0.018290378 -0.012577437 0.007686971 0.0853296 -0.004440097 0.052291766
0.031669967 0.037882417 -0.07735365 -0.02759111 -0.010183602 -0.022308342 0.011151141 0.01520278
-0.067714565 -0.024037816 0.05441573 -0.036910042 -0.07677513 0.019517798 -0.08446195 -0.038867563
-0.080433406 -0.09071533 -0.03738322 -0.02647555 -0.06640805 0.07162837 -0.0723675 -0.0058921822
-0.04856174 0.046873704 -0.058210768 -0.031388685 0.09620927 -0.03351488 -0.032702547 -0.06301984

lstm.bias_hh_l0 f4 [400]
00000000: 3827 45bd a228 243e 76f0 c83c 973b a53d
00000010: 735f ae3d 9ac5 e3bb ab94 b53c 9374 ab3d
00000020: 08f8 343d 07d3 bfbb ef14 15bb 23af 133e
00000030: 69e2 023d c9fe a13d 00d7 f5bc 405b 413e
00000040: 7a74 d63c 156c 833d d19d 4c3d 4ab6 ee3d
00000050: 36d2 d33d 986d 00bd 074e 4d3e aa94 a1bd
00000060: 5b3d 263e 72d2 dd3d 1e72 d3bd 545c b4bd
00000070: b6d3 58bd d445 8b3d fbd9 a53d dd33 9a3d
00000080: 9553 a6bd b48f cb3d 6955 0e3e 0a3f c43d
00000090: 89a5 e5ba 27fd f33d 487a 873d 7361 a1bd
000000a0: 1c81 acbd 13c1 92bc 68eb a5bd 6dfc 0e3d
000000b0: ea4f 013e 0784 abbd 2880 91bb 0e22 eb3d
000000c0: ca4d f23d fba5 60bd 6df9 853d c9ab 59ba
000000d0: 640d 8c3c fad4 fbbc ced2 f93d 1716 e73d
000000e0: da71 113d 49b3 903d 15ca bf3d 8499 703d
000000f0: 985b 1c3d 57de 473e 71fb ee3d 72a6 66bd
00000100: afe5 aa3d 42f2 8c3b 68a6 c13b 9097 063d
00000110: 2571 a33d 7414 df3d a230 bebd 43af 943d
00000120: 9880 333d bcfe ad3d bc53 0d3e 8be2 aebd
00000130: 3ce9 963d b26e ba3d 2783 8c3e bd43 b43d
00000140: 9410 e93d a31a fd3d 23e5 793c 42c1 37bd
00000150: 2811 63bd be79 053e 4ada 0d3e b319 14bd
00000160: abcb 583d 7a00 833d d3c8 493e 5482 89bd
00000170: c87c 433d bd9b c13d d051 cdbd 94af 313b
00000180: 6d48 8d3d f596 c6bd 4582 3f3d 3b88 653d
00000190: 008a c13d 6378 7f3a 55bd 89bd baab a53d
000001a0: 88a8 e4bc 0cd1 a43d a47a ad3d 9049 8e3d
000001b0: fdb1 2e3c 89ab 403d 51c9 6b3d 828a 44bc
000001c0: 7053 4ebd 4e8b 483d b933 a23d 18b9 f53c
000001d0: c062 c73c 7fda 873d 48f2 bc3d 630f 473e
000001e0: e9d3 403c 77bb 223d 5456 173e 2634 d43c
000001f0: e8b2 a83d d91b 863d cb1d fa3c ce80 c63d
00000200: 5fb7 2c3c 37dd d33c 2fb3 5cbd 1c09 1c3d
00000210: c283 bebb dc73 583e 04b7 a03c 84fa 6c3c
00000220: d4ed cf3d 3838 87bd 5286 dfbc 0182 2bbd
00000230: 6097 953d 27fd 4a3b 02e1 46bb b58a 3b3d
00000240: 1cd8 893d 8334 6ebd 3c9e 783c 32d9 5dbc
00000250: 3780 193d 16ed 45bd a9f8 dd39 83c4 b03d
00000260: 2ac3 173d b3d0 db3d 44b4 7b3c 4f1a de3d
00000270: 42a1 783d aa16 b5bd 9847 b8bc 7ced 8abd
00000280: 9581 11bd 7785 b23d 7d3a d63d 1c95 33bd
00000290: 2f76 c73d b03a 7dbb 1dbd 4e3d fbe5 97bc
000002a0: 85e9 85bd 31b7 703c 55b7 f239 853a 273d
000002b0: 45ba 803d edc3 9d3d d426 063e 7f86 e5bd
000002c0: c1b5 f03b b102 2a3d 2aa5 4b3c 27c7 50bd
000002d0: 4532 e23d 5490 d23d 72f2 22bd ab41 343d
000002e0: c87f ab3d 0f34 bd3d e81a 1b3c 5e70 ce3b
000002f0: febe 183e 3407 9dbd 1879 1c3e b322 b3bc
00000300: 0a77 073e a314 de3c a5eb 0cbd 3cda 843d
00000310: ac08 df3d 224f 493d 6ecf afbd cdf9 853d
00000320: 4800 9ebd 6a38 433d 970d 08bd 5b8d 403d
00000330: cb4c 6dbd 6cbd c03c 7bf8 083d 9216 09bd
00000340: 5392 babd a764 8c3d 4670 a03d 602b 9ebd
00000350: a753 5bbd 848b 08bd d4a6 823d 45a9 e7bd
00000360: d059 8ebc bd7b 773d ccad 033c 405d c73c
00000370: dc9a d3bc afde 7dbd 6ecd 203d eb1d 8a3a
00000380: 06a5 2bbd 4c36 b33d bc87 2f3d 625a 2ebd
00000390: 9188 b53c 2d25 793d 148e 6fbd 795e 96bd
000003a0: da1d f4bc 4318 2b3c b7f5 ddbd 733e cb3a
000003b0: db60 923d 5077 123c 7e26 073d 5542 b4bd
000003c0: 04c2 603c 5e67 19bc 12dc 98bd e723 83bc
000003d0: e67b 243d 9f56 483d 7113 363d 83fa c7bc
000003e0: 5396 44bd 8da4 803d 6e9d c73d 62df 67bd
000003f0: 69ac b2bd e007 6f3d 950e 073d 4ab1 033c
-0.048133105 0.16031125 0.024528723 0.080680065 0.08514299 -0.006951046 0.022165617 0.08371844
0.044181854 -0.005854014 -0.0022748073 0.14422278 0.031954203 0.079099245 -0.030009747 0.18882465
0.026178587 0.064170994 0.049955193 0.11655863 0.10342829 -0.031354517 0.20049296 -0.078896835
0.16234343 0.10831155 -0.103245005 -0.08806673 -0.05293628 0.06800428 0.08098217 0.075294234
-0.08121411 0.099395186 0.13899769 0.09582336 -0.0017520647 0.11913519 0.0661512 -0.07879915
-0.08423063 -0.01791433 -0.08101541 0.0349087 0.12628141 -0.083747916 -0.0044403262 0.11481105
0.11831243 -0.05484579 0.06541715 -0.0008303491 0.017096229 -0.030741204 0.12198411 0.1128351
0.035508968 0.07065446 0.09364716 0.058740154 0.038173288 0.1951841 0.116690524 -0.05631108
0.0834459 0.0043013403 0.0059097297 0.032859385 0.07980565 0.10892573 -0.0928662 0.07259991
0.04382381 0.08495852 0.13801473 -0.085393034 0.07368705 0.09103145 0.2744381 0.088019826
0.11380115 0.12358596 0.015252384 -0.04486204 -0.055436283 0.13034722 0.13852802 -0.03615732
0.052928608 0.06396575 0.19705515 -0.06714311 0.047726423 0.09453533 -0.1002537 0.002711271
0.0689858 -0.096967615 0.046755094 0.056038123 0.094501495 0.0009745417 -0.06725565 0.08089395
-0.027912393 0.08047685 0.084706575 0.06947625 0.010662553 0.04703859 0.057565037 -0.011995913
-0.05037254 0.048960976 0.079200216 0.029995486 0.02433908 0.06633472 0.09225899 0.19439463
0.011769273 0.03972956 0.14779025 0.025903773 0.08237249 0.0654828 0.030531785 0.09692536
0.010541766 0.02586232 -0.05388182 0.038094625 -0.0058140466 0.21137947 0.019618519 0.014464024
0.10152784 -0.0660252 -0.027285729 -0.04187203 0.07304263 0.0030973644 -0.0030346517 0.04578658
0.06730673 -0.058155548 0.015174445 -0.013540553 0.03747579 -0.048321806 0.0004233767 0.08631232
0.037051357 0.107331656 0.015362803 0.10844862 0.060700662 -0.088422135 -0.022495076 -0.06783578
-0.03552397 0.08716863 0.104603745 -0.043843374 0.097393386 -0.0038639717 0.05047332 -0.01854228
-0.06538681 0.014692114 0.0004629443 0.040827293 0.06285528 0.077033855 0.13100749 -0.11207294
0.0073458855 0.041506473 0.012429515 -0.050971176 0.110447444 0.10281435 -0.039781995 0.04400794
0.08373982 0.09238445 0.009466864 0.0063000163 0.14916608 -0.076673895 0.15280569 -0.021867132
0.13229004 0.02710945 -0.034404416 0.064869374 0.10890326 0.049147733 -0.08584486 0.06541786
-0.077148974 0.047661223 -0.033216085 0.047009807 -0.057934564 0.023527823 0.033440094 -0.03346879
-0.091099404 0.068551354 0.078339145 -0.07723117 -0.053546574 -0.033336177 0.06379476 -0.113115825
-0.01737681 0.06042074 0.008037042 0.024336457 -0.025830679 -0.061979946 0.039258413 0.0010537481
-0.041905425 0.08750591 0.042854056 -0.042566665 0.022159846 0.06082647 -0.058485106 -0.07342238
-0.02979939 0.010442796 -0.10837882 0.0015506282 0.0714738 0.008939579 0.032995693 -0.08801714
0.013718132 -0.009363024 -0.0746385 -0.01600833 0.04015722 0.048910733 0.044452135 -0.024411445
-0.047994923 0.062813856 0.09746824 -0.05660952 -0.08724291 0.05835712 0.03297289 0.0080378745

lin.weight f4 [48, 100]
00000000: 104c 0c3c cf99 813d 5bc7 ffbc 90e0 34bd
00000010: f4d9 043c 2590 af3c 99d6 9e3d efd1 2f3d
00000020: cda2 893c ffcc fd3d 5ae7 bdbd 292d acbd
00000030: 46ae dd3c c600 f0bb de64 f43c 479d 38bd
00000040: a1db 523d 917c 053e 59de 13bc c529 8bbd
00000050: 42ed 403d ecab e53d 82d3 8db9 2a2d ef3c
00000060: 6c49 a2bc 747b c93c 6741 3f3d ad9b cb3c
00000070: 0304 833d 484d 313c 4ba1 a0bd c226 1e3c
00000080: 98df 04bd 1f05 e1bb e6cd 793d 1ea5 843c
00000090: 40a8 c3bc f0b9 523d 911e 22bd f964 943d
000000a0: 86be 0bbd 1275 1f3c 3c72 a83b c9ce 513d
000000b0: 1158 053c 81ef 183c 1c64 fbbc 722a c3bd
000000c0: 716b 853d 91c4 893d 30bf 863d 3fb6 9c3b
000000d0: 990c b83d 6c7b b6bd 576b 843d 5195 07bd
000000e0: d8cc 17bd d75c 5ebd beb1 973d 1c0f a43c
000000f0: ea75 43bc 961a d03d 432b b93d 6149 04bd
00000100: 390e 183c 541d 9c3d de79 e43d 1bf5 a43c
00000110: 1f53 593d 572e b1bd bad8 9e3d 8d77 4cbc
00000120: 2395 e83d 9b17 53bd 1cde a9bd 9365 19bd
00000130: 6eeb 013d 52f5 fabc a9c4 a03d 50c2 803d
00000140: 5546 3cbb ec2d 36bd d3c4 0a3d bb9f 383c
00000150: 594e 393c 733f cdbd 630e 4e3d 1a5b af3b
00000160: 4b76 eabc 6c83 6c3d dc0a 96bd b3fe b6bd
00000170: af70 e73c 8df3 8f3c ecf2 3dbd 0ace e83c
00000180: dcef 6ebc a764 5cbd 7c73 683d fe8c c5bd
00000190: 7499 4639 cd42 663d 6c7d b6bd ec65 713d
000001a0: 2dc1 e73c 00a6 6b3c 0a00 dbbd 4fd4 c5bc
000001b0: 7292 11be f5bf 58bc 1408 323d 083e 153d
000001c0: cedf 9dbd 934a 31bd f275 013d 3359 cb3d
000001d0: cac0 c13d b971 a5bd ebdb 69bd de9c 8dbd
000001e0: ac5a 943d ce44 01be e39a 85bd 538c cabd
000001f0: 2595 083c 0acb b6bd dc8c 3fba ec55 d33c
00000200: 40f8 473b 21d4 ce3d 71fa e83c 1dfa cf3d
00000210: 772d 7a3d 2307 edbd 8e59 883d 730c 73bc
00000220: 8802 86bd 9f16 163d 69f9 17bd d9f1 87bd
00000230: cbd7 133e decf 41bd 6f11 08bd 854c 143c
00000240: cf06 a8bc 4e1a cdbc 5d2d bcbc b4a0 89bc
00000250: 40d5 cd3d 75f5 c43d c785 2fbd b6d1 4fbd
00000260: 52d9 a4bd 4e3f f5bb 5e34 fabc f2de 613c
00000270: 9fb3 ddbc df19 bebb cf1d 04bd cb97 223d
00000280: e707 753d d7f1 773d 3738 02bd e3bf 653d
00000290: 9932 093d 8e01 58bd f62f 263d 17e1 7c3d
000002a0: 28e6 8ebd 38d8 553d edac 81bd 63ad b0bd
000002b0: 0501 33ba 7208 f03b 8759 4f3c 2aac 5cbc
000002c0: d85e 01be 19c4 8c3c 2353 5fbe 07be 7fbd
000002d0: 0312 c43b 4448 b5bd 4bbb 91bd dc15 05bd
000002e0: ea75 a13d a19b 303d 5ec1 b8bd d0ae ed3c
000002f0: 9cd4 99bd b364 8dbd 963b 1a3e 1dad 903d
00000300: 824b ce3c 2b95 a93d 7a0e 043e 8a09 6bbd
00000310: b033 a0bc 7ad7 5b3d 4f9c 79bd d129 be3c
00000320: f21e e2bd 0fd8 aa3d afad 483e a176 93bd
00000330: bf62 df3d a1ab f3bc ec76 633c 6dad 793e
00000340: ca2d 583d 849c dc3d a4c2 29bd 2ea1 80bd
00000350: b965 77bd 3ace 75bd 14fb 9a3d fd70 70be
00000360: aa72 16b9 19f4 223e 0028 d13d f28b 913c
00000370: 0072 2d3d 1407 6a3d d04b 533d e61c 67bd
00000380: 9a19 fbbd 0de3 29bc 4116 1c3d a34f d83c
00000390: 883a 403d 222c 5dbe 485e 5ebd 3d5d 82bd
000003a0: 8b0d aa3c 7ab9 9b3c 5b74 b4be 9de6 583d
000003b0: b9fe b7bd 7e83 f03d fe11 9bbc e970 e3bc
000003c0: e4ea a0bd 4f3c a73b 2cb6 983c cc0f d0bc
000003d0: eb68 cc3e a031 31bd cea6 be3d 0160 1bbd
000003e0: d417 ae3d bb85 06be dba1 7a3e b5b2 533d
000003f0: 83c0 e13c 150a 7ebd 99fa a23d 5557 8dbd
0.008563057 0.06328165 -0.03122299 -0.044159472 0.008108605 0.021431038 0.07755775 0.042924818
0.016801262 0.123926155 -0.092726424 -0.08407051 0.02706064 -0.007324311 0.029833253 -0.045071866
0.051478986 0.130358 -0.00902518 -0.06795076 0.047101267 0.11214432 -0.000270512 0.02919634
-0.0198104 0.024595 0.046693232 0.024854505 0.063972495 0.010821648 -0.07843264 0.009652795
-0.032439798 -0.0068670656 0.060987376 0.016192015 -0.023883939 0.051446855 -0.03957993 0.072458215
-0.034117244 0.009732502 0.005140571 0.051222596 0.008138672 0.009334446 -0.030687384 -0.0952958
0.065146334 0.06726945 0.06579435 0.0047824676 0.08986778 -0.089102596 0.06465786 -0.033101384
-0.03706059 -0.054287758 0.074069485 0.020026736 -0.011929968 0.10161321 0.09041455 -0.032296542
0.009280735 0.076227814 0.11156057 0.020136407 0.053057786 -0.08651417 0.07756181 -0.012479675
0.113565706 -0.051536184 -0.08294317 -0.037450384 0.031718664 -0.030634556 0.0785001 0.06287062
-0.0028728445 -0.04447739 0.033879112 0.011268551 0.011310183 -0.100218676 0.05030669 0.0053514363
-0.02862086 0.05774252 -0.0732629 -0.08935299 0.028251974 0.017572189 -0.046374246 0.02841856
-0.014583554 -0.053806927 0.05675076 -0.09646033 0.00018939917 0.05621605 -0.08910641 0.05893509
0.028290356 0.014382839 -0.10693367 -0.024149088 -0.1421602 -0.01322936 0.043464735 0.03643611
-0.07708703 -0.04328401 0.031606622 0.09929123 0.094606 -0.080783315 -0.057094496 -0.06914686
0.07243857 -0.12623903 -0.06523683 -0.09890046 0.00833634 -0.089254454 -0.00073070615 0.025797807
0.0030512959 0.10099054 0.028439732 0.10155127 0.061078515 -0.11573627 0.06657706 -0.014834511
-0.065434515 0.036642667 -0.03710309 -0.06637926 0.14437787 -0.04731738 -0.03321975 0.009051447
-0.02051106 -0.025036957 -0.02297085 -0.016800262 0.1005044 0.0961713 -0.04285219 -0.050737105
-0.08049263 -0.007484353 -0.030542549 0.013786064 -0.02706319 -0.005801424 -0.03225499 0.039695542
0.05982199 0.06053337 -0.031791892 0.0560912 0.03349552 -0.052735858 0.040573083 0.0617381
-0.069774926 0.052208155 -0.06331811 -0.08626821 -0.000682846 0.0073252255 0.012655622 -0.0134687815
-0.12633836 0.01718335 -0.21809058 -0.062437084 0.0059835925 -0.08851674 -0.071158014 -0.03249155
0.078838184 0.04311717 -0.09021257 0.029014021 -0.07511255 -0.069039725 0.15061793 0.07064269
0.02518249 0.08280405 0.12896147 -0.057382144 -0.019555897 0.05367229 -0.060940083 0.023213299
-0.110410586 0.08341991 0.19597505 -0.07200361 0.10907506 -0.029744925 0.013883334 0.24382563
0.052778043 0.107720405 -0.04144539 -0.062807426 -0.060399745 -0.060011126 0.075674206 -0.23480602
-0.0001434783 0.15913428 0.102127075 0.017766926 0.042345047 0.057135656 0.051585972 -0.056424044
-0.122607425 -0.0103690745 0.03810716 0.026405161 0.04693082 -0.21598867 -0.054289132 -0.0636544
0.02075841 0.01900934 -0.35245022 0.052954305 -0.08984131 0.1174383 -0.018929478 -0.0277638
-0.07857302 0.005103625 0.018641554 -0.025398158 0.39923796 -0.043260217 0.09309159 -0.037933353
0.085006386 -0.13136952 0.24475805 0.0516841 0.027557617 -0.062021334 0.07957954 -0.06901423

lin.bias f4 [48]
00000000: 9e02 003e c171 27bd 349f 9d3c ad3c 073e
00000010: fccc 703d 9ec6 a63a 1fc5 cabd 26d3 213d
00000020: 7f09 9fbd fb77 293c d78d b03a 39fb 1f3c
00000030: 2609 82bd a537 d7bd 906e acbd 5a52 b43d
00000040: 8f49 f03d 5609 a3ba 27b8 46bd f821 37bc
00000050: d01a 82bd 1538 783d 1b66 163e 2e93 cfbb
00000060: 4f5f 5a3d 159a 03bd f26c c13d b85c 043e
00000070: 79a6 103d 5c24 adbd 7e91 ba3d b517 7d3d
00000080: e497 d2bd 4711 c93d 6161 ee3d 2f40 6b3d
00000090: c336 3dbd 0bd8 1fbd d996 bf3d 501f df3c
000000a0: 7687 f73c 18af 0c3e 9057 df3b 7326 073d
000000b0: 9076 bc3c aacb 913d da3d dd3d 1b2e 433d
0.12500998 -0.04087997 0.019240953 0.1320674 0.05878924 0.0012723987 -0.09900879 0.039508007
-0.07765483 0.010343547 0.0013470006 0.009764486 -0.06349401 -0.1050866 -0.084195256 0.0880477
0.1173278 -0.0012438695 -0.048515465 -0.011177532 -0.0635277 0.06060036 0.14687388 -0.006334684
0.05331355 -0.032129366 0.09444608 0.12925994 0.03531501 -0.084542006 0.09109782 0.061790187
-0.10282877 0.098177485 0.11639667 0.057434257 -0.046194803 -0.039024394 0.09354944 0.02723661
0.03021596 0.13738668 0.006815858 0.032995652 0.023005754 0.07118924 0.10802813 0.04765139

lin2.weight f4 [24, 48]
00000000: 5867 123e 0bf1 493c d56a c2bd b01c 2a3e
00000010: 8a4a f9ba 4ce8 6e3e 3c7e be3c 3434 febd
00000020: d8a7 103a 5b1c 763c 0580 05be b01b d0bc
00000030: 4de5 9bbd 7633 953d 6f75 03be 5548 bdbd
00000040: 4f93 453d f3d1 453d 8d03 4ebb a6fd 8d3d
00000050: d583 683d a2c6 b73b 334e 16bc 88d1 d23d
00000060: 6c54 3b3e 20be 6fbd 3624 2f3d f3b7 be3c
00000070: e2cd 55bd ea97 6bbd 6e72 933d ed28 a13d
00000080: fc86 9dbc 3e2e ea3c 3f40 b73c ded7 78bd
00000090: fac7 a2bd dd93 963c d71a 703d 492a a13c
000000a0: 7025 00bc afdd 553c 96e7 54be b0f9 7aba
000000b0: 3478 293e dc71 223e cba7 2d3e 7b98 a73d
000000c0: 4087 413d c5ac 523a c459 48be 4043 d03d
000000d0: b663 c13d 8287 5a3e 2326 e6bd 79e1 dd3d
000000e0: 8086 05bb 0596 ab3d 535a 59bd 9793 053e
000000f0: eb62 ea3d f00c 043e 0f8d cebd 752a fdbd
00000100: 4ca0 ec3a 060e 0bbe a19f 133d 8c75 903e
00000110: f986 303d f3cb 923d 5eb4 b13d eaa8 da3d
00000120: 5116 423e 8ac5 063e 428c 313d 2f4c abbd
00000130: 9650 113c f4cd e8bd 8270 64bd c064 c33d
00000140: 4c79 eabd 2475 943d 05a6 0a3c cb3b 05bd
00000150: db37 363d 90f3 be3b 189b 5fbd d4eb 1f3c
00000160: 6b4e 123c d536 bfbd 2678 483d 29ae afbd
00000170: ae80 233e 886f dc3d 48a9 083d 981c e7bd
00000180: 0ca5 853d e5d5 793d 930e bbbd fdbf 1cbc
00000190: a8a7 2d3e 9738 413d 22b0 b03d 23e0 ed3b
000001a0: 3348 043e 741d 35bd e3ed 13be 2016 e5bd
000001b0: 1e5d abbd 535c ea3d f9af 8ebd 6151 4b3d
000001c0: 0875 603c 4bb7 c9bd 3776 acbc 2c49 543e
000001d0: 14de a23d b958 ea3d aed5 683d 3749 223e
000001e0: 5204 963d ee1c 843e 7410 333c 2e0f c23d
000001f0: 6740 a53d ac8d 9abd 552b d2bd 49f6 91bc
00000200: 81cf 493d 59e6 1d3e de7a e1bc b7e5 9ebd
00000210: ca07 4e3d aa54 d6bd b918 0ebd ebc3 86bb
00000220: 6c68 35bc fb9a 7b3d 72c1 c4bd 2a98 80bd
00000230: 9327 733e 39b5 b23d 4b75 d83c 5681 c6bc
00000240: 0398 9a3d e330 343d 23ed 843c 14ed 013c
00000250: e67f 483e 952c 88bd 16c9 88bd e0cc f83d
00000260: c93c c0bd ec70 0d3d ce0a 48bd b469 013e
00000270: 4be4 873d ee9c 383d c84c a73d 38d4 f13d
00000280: 2299 03be c4d3 b83b 5625 fcbc f41c 3a3d
00000290: 66e1 c1bd fbc6 e23d a75b c73d 031a 0e3e
000002a0: c427 2d3e f05c 943e fe80 10bd 850e 94bd
000002b0: 5029 a8bd 279e 08bd b488 843d bb2e fc3c
000002c0: 2c0a 8e3d a312 913c eea2 c0bb 2e3c 8c3d
000002d0: 9e24 513d 4eaf 08bd e44e b13d b8c8 b3bd
000002e0: 9230 93bc 3718 923c 7212 063d 3547 a5bd
000002f0: 754c dc3d b438 eb3d 7dc5 aebc ccab d4bc
00000300: eb35 9a3d 8102 a63d b2e8 8b3d f8b5 9abd
00000310: 9eb2 443e c57b e2bd 81d8 db3d 4b49 1dbd
00000320: 14b5 c4bc c392 493d a2a5 0d3b d8d0 a83d
00000330: e0e6 3b3d 4f0c 9dbc f4b8 f3bd a060 35bd
00000340: 9909 383b a518 b83d 82f9 a0bd 108b 27bd
00000350: b773 58be 9f24 653d 066a 043e 3c06 c93d
00000360: 9150 fe3d c4c5 423e 33e9 64bd 3528 36bd
00000370: b378 fcbc b081 8cbd 6b28 f4bc 77bc d83d
00000380: 5e88 02be e617 e9bd 56cd a6bd 2a40 a5bc
00000390: 024a 12be bb28 edbb d2df fd3d e390 41bd
000003a0: 1b1a 3bbc 1112 fc3c cc6f 7b3d 3164 4d3c
000003b0: 56c7 703d 80af d93d 27f2 a23d 651e c43d
000003c0: 2149 bcbd dffe 63bc ec62 483e bc8b b73c
000003d0: 7091 513e e8dc 96bd 6b2b 90bc b538 203d
000003e0: cd17 09bd 0644 20bd 6153 d73c 8a1e 873d
000003f0: d48a 1abd c0f4 cc3d a6a3 d33c a994 f63b
0.14297235 0.0123255355 -0.09493033 0.16612506 -0.0019019407 0.23330802 0.023253553 -0.12412301
0.0005518175 0.015021409 -0.13037117 -0.025403827 -0.07612095 0.07285206 -0.12837766 -0.09242312
0.048236188 0.048295926 -0.0031435222 0.06933145 0.05676635 0.0056083957 -0.009173918 0.10293871
0.18293923 -0.058530927 0.042759143 0.023281073 -0.0521983 -0.057517923 0.0719956 0.07869134
-0.019229405 0.028586503 0.022369502 -0.060752742 -0.07948299 0.018381054 0.058619346 0.019673483
-0.007821426 0.013053342 -0.20791468 -0.00095739495 0.1654976 0.15863746 0.16958539 0.0818338
0.047248125 0.0008036609 -0.19565493 0.10169077 0.094428465 0.21340755 -0.11237743 0.10834021
-0.0020374358 0.08378223 -0.053064656 0.13044582 0.11444648 0.1289556 -0.100854985 -0.12361614
0.0018053143 -0.13579568 0.036040906 0.2821468 0.04309747 0.071678065 0.086769804 0.10676749
0.18953826 0.13161293 0.04334665 -0.0836414 0.008869311 -0.113674074 -0.05577136 0.09540701
-0.11448917 0.07248905 0.008462434 -0.032527726 0.04448686 0.0058273748 -0.05459127 0.009760816
0.008929829 -0.0933663 0.048942707 -0.0857814 0.15967056 0.107634604 0.033364564 -0.11284751
0.06525621 0.060995 -0.09133639 -0.009567258 0.16958487 0.04717311 0.08627345 0.007259385
0.12918167 -0.04421754 -0.14446215 -0.11185861 -0.0836737 0.11443391 -0.06967158 0.049638156
0.013699777 -0.098494135 -0.021052463 0.20731038 0.07952514 0.11442704 0.056844406 0.15848242
0.07325043 0.25803322 0.010929216 0.094755515 0.080689244 -0.07546553 -0.10262171 -0.017817633
0.049270157 0.15419902 -0.027524408 -0.077586584 0.050300397 -0.10465367 -0.034691546 -0.0041127107
-0.011072259 0.061427098 -0.09607209 -0.06279023 0.23745565 0.08725972 0.026423117 -0.024231594
0.07548525 0.043991935 0.016226357 0.007930059 0.1958004 -0.06649128 -0.06678979 0.12148452
-0.09386594 0.03453152 -0.04883843 0.12637979 0.0663534 0.045071535 0.08168942 0.11808056
-0.12851384 0.005640479 -0.030779522 0.045437768 -0.094668195 0.11073109 0.09734278 0.1387711
0.169097 0.28977156 -0.035279267 -0.07229332 -0.08211005 -0.03335395 0.064713866 0.030784002
0.06935534 0.017709082 -0.0058787977 0.06847416 0.05106031 -0.03337031 0.08657625 -0.087785184
-0.017967496 0.017833812 0.032732435 -0.08070222 0.107567705 0.11485425 -0.021334404 -0.025960825
0.07529815 0.08105946 0.068314925 -0.07554239 0.19208762 -0.110587634 0.10734654 -0.038399976
-0.024012126 0.04921223 0.0021613617 0.08242959 0.045874476 -0.019170908 -0.119005114 -0.044281602
0.0028081893 0.089890756 -0.0786009 -0.040904105 -0.21137892 0.055943128 0.1293107 0.09815642
0.124177106 0.19020754 -0.05588646 -0.04447194 -0.030819273 -0.068606734 -0.029804429 0.10582822
-0.12747332 -0.113815114 -0.081446335 -0.020172197 -0.14286044 -0.0072375215 0.12396206 -0.047257315
-0.011419798 0.030770333 0.061385915 0.0125360945 0.05878385 0.10629177 0.07956343 0.0957611
-0.09193636 -0.0139157465 0.19568986 0.022405498 0.20465636 -0.07366353 -0.017598828 0.03911658
-0.033469964 -0.039127372 0.026284875 0.06597622 -0.037730053 0.1000762 0.02583487 0.007525046

lin2.bias f4 [24]
00000000: 0ca1 47bd b385 a43c 6ed1 00bc 948b 853c
00000010: fd6a 273d 8d52 bd3d 4210 2abd b2f1 8f3d
00000020: c30d b23d 54c3 213d eed3 b53d c6b6 94bd
00000030: 34ae 60bb eac6 513d e76b 52bc 374b a4bd
00000040: 3ad8 733c 69c7 483d 4819 9f3d f66e 5a3a
00000050: 2852 c83d d3ff e93c cce0 513d 3fe6 e23c
-0.04873757 0.020083284 -0.007862432 0.016301908 0.040873516 0.09244261 -0.04151941 0.070285216
0.08694031 0.03949292 0.08878313 -0.07261424 -0.003428352 0.05121509 -0.012843109 -0.080221586
0.014883095 0.049018297 0.07768494 0.00083325745 0.09781295 0.02856437 0.051239774 0.02769768
