models/LSTM_seq_1st.pt (torch_old, 198207 bytes, 8 tensors)

lstm.weight_ih_l0 f4 [400, 1]
00000000: ba20 be3d f04e 1b3c ce8a 163e bcbf 99bc
00000010: f43a 933d 7c97 893d d4c2 8dbc f085 19be
00000020: 23bb b93e 22de ce3d 8949 02be 0cb1 923c
00000030: 0f74 3a3e ec37 3b3d 568a 143e a3bd 903b
00000040: 7183 fc3a bad1 f0bb c1be 42bc 52e4 ee3d
00000050: bc5e 843d 2bc3 e1bc d1cd 533d e99f afbe
00000060: cf47 90bd d981 dd3d 09f0 19be 72c9 b0bd
00000070: 0cbe 95bd a22e 2dbe 894b 90bc 729d 2dbe
00000080: c1bb d63d 761d 0d3d 235c 6cbd 883d 99be
00000090: 9f92 b73e 0372 47bd 9af2 643c b342 a3b9
000000a0: 0443 9a3d 49e0 b23d 2381 973e d83c 023d
000000b0: f2dc ca3c d0fd 793d 9681 303e 7cae 073d
000000c0: 06fe 1d3e 176f 1ebd 975a 223e b986 653e
000000d0: 6a41 fdbc f906 47bc 04aa 1c3e 30a6 a3be
000000e0: db59 763c 3677 733d 7134 ed3d 9931 b83d
000000f0: 83a4 b8be 0032 5b3e 8f54 7cbe 3f85 dd3d
00000100: da3b 443d 6c68 0d3d 35da 843d 14dd 12bd
00000110: 7916 31be 3883 eb3d 6855 2cbd 3442 c03b
00000120: 6900 093e 9c49 2fbd b309 2a3e 6f1e cdbd
00000130: d737 37bc 7935 7f3d 2e0b 1b3d d6b5 b4bb
00000140: 11f3 d9bd 5258 293e 354c 4bbe bfe3 413e
00000150: 34a1 08be edc6 50be 669d 223d 17c6 f03d
00000160: 69ca a53c 9ed1 0c3e b4a0 513d d02b be3d
00000170: 9459 da3d bf1b 54bc 0eb5 953e 4c8f 713d
00000180: d356 fc3c 2332 e33d 93f3 ccbd 29ad d73d
00000190: 168f 343e 50da 733d 7d72 ce3d 3d36 6fbc
000001a0: 2e07 173a 0841 6b3e 7580 a93b bb3e 04be
000001b0: a0c3 d73e b8e7 8a3d 678c 39be 3a62 093e
000001c0: a190 823e 372b 3c3c d7d8 da3d 4db0 2d3e
000001d0: 0dc9 8e3d 6b82 a13d 2420 903d efcd 143d
000001e0: eff4 813e e32e a3bd 338c 773d eb4c 8bbe
000001f0: da7b 11bd e667 4f3e 5b37 8cbd 8042 0e3d
00000200: ef99 b7bd c4d3 32be 3b88 c73d d1f4 04bc
00000210: bbd7 db3d 0c90 873e cd2c 1abe 5bac 7cbe
00000220: 38a3 bf3e f4d3 53bc c9a5 cb3a 1e17 a73d
00000230: 691a 323e 0865 ec3c b277 243e 77d7 0f3d
00000240: b7c0 333e 86ac a9bd 570b 253e e45d 76bd
00000250: c618 1ebc a491 983c 1ffc 463e fdb2 823e
00000260: 52ac 8b3d 4a7b 63bd 5b4a 083e afca 86be
00000270: e871 003d 3551 8f3d 4afa 123e 7fe5 aa3d
00000280: ada4 27be 84cf 7c3e 51af 6bbd 78e9 433e
00000290: ba41 fb3d b79a 24bd 01a6 afbc 0c90 d73d
000002a0: 02d2 82bd e33d 3c3d 2e16 76bd 73e4 8b3d
000002b0: e006 1f3e af66 26bd fc9b 173e e7ad b73c
000002c0: 2715 cbbc 634f 173e 5374 0cbe a686 8e3c
000002d0: 9fd1 223c 13e3 783d a261 20be 0a83 413c
000002e0: f9eb 28be d0df b1bd a04a 533c 7436 033e
000002f0: 7669 3e3c 0991 713e 983b a43d ee0d c73c
00000300: 2a07 0a3e 3512 50bd 7fe6 5a3e c5aa 483d
00000310: 9631 a8bc 6556 a9bc aaa8 a8bd 3ebd 363e
00000320: bc81 2cbd 7d7d 0bbe 09a9 44be 56b1 a0bd
00000330: 64d0 14bd 2a2d 82bc 3201 373e 432d 5a3d
00000340: 4b95 96be 2ec2 d73d 86ca 4cbd 3122 2d3e
00000350: 6390 93bc 9d71 423e 4dcb 2e3d c552 b3bc
00000360: 6646 403e 44e9 873d 7488 343e f625 31be
00000370: 2143 013e 7379 853d b0dc 483c 3960 45be
00000380: a106 c43c dd57 21bd acc7 3e3d 3f5b c5bd
00000390: d75a 903d d83f 31be 4448 f23d f978 88bd
000003a0: 3e5e 11be 30c1 ce3c b6a6 33bd a2a2 22be
000003b0: 0771 adbd 69c3 00be 5523 753d 9a18 433e
000003c0: a8a2 fbbc 884e ec3c d876 9d3e f337 ab3d
000003d0: 0fee 4fbd b3ae 7abe a4d5 133e 5255 0e3e
000003e0: 7da2 483e 50a3 e43c 4cb9 36be c60d 783d
000003f0: 57da 02bd e7dd 043d 9f64 28be 420c b83d
0.09283586 0.009479269 0.14701387 -0.018768184 0.07188979 0.067183465 -0.017304815 -0.149925
0.36275586 0.10100962 -0.12723364 0.017906688 0.18208335 0.045707628 0.14505896 0.0044171377
0.0019265247 -0.00734922 -0.0118863 0.116646424 0.06463382 -0.027558884 0.051709954 -0.3430169
-0.070449464 0.10815782 -0.15032972 -0.08632173 -0.07311639 -0.1691232 -0.017614143 -0.16954592
0.1048503 0.034451924 -0.057705056 -0.29929757 0.3585405 -0.048692714 0.013973856 -0.00031139478
0.075323135 0.08734185 0.2959071 0.031796306 0.024763558 0.06103307 0.17236933 0.033125386
0.15428934 -0.038680162 0.1585487 0.22414674 -0.03091498 -0.0121476585 0.15299231 -0.31962729
0.015036072 0.05943986 0.11582268 0.08993835 -0.36063012 0.21405792 -0.24641632 0.1081643
0.04790864 0.034523413 0.06486932 -0.035855368 -0.17293729 0.11499637 -0.042073637 0.005867267
0.13379063 -0.04279481 0.16605262 -0.1001557 -0.011182747 0.062306855 0.03785246 -0.0055148406
-0.10642064 0.16537598 -0.1985329 0.18934534 -0.13342744 -0.20388384 0.039700888 0.11756533
0.020238118 0.13751838 0.05117865 0.092857 0.10661617 -0.012946068 0.29239696 0.05897455
0.03080312 0.11093547 -0.100073956 0.105310746 0.17632708 0.05953437 0.10080431 -0.014600334
0.0005761263 0.22974026 0.005172784 -0.12914555 0.42141438 0.06782478 -0.18119965 0.13416377
0.25500968 0.011484913 0.1068589 0.16961785 0.06971941 0.078862034 0.0703738 0.036329206
0.25382182 -0.07967927 0.06043644 -0.2720712 -0.035518505 0.20254478 -0.06846496 0.034731388
-0.089649074 -0.17463595 0.09742781 -0.008115009 0.10734507 0.26477087 -0.15056153 -0.24675123
0.37429214 -0.0129289515 0.0015537079 0.08158706 0.17392887 0.02885677 0.16061285 0.035117593
0.17553984 -0.08284859 0.16117607 -0.060148135 -0.009649461 0.018624134 0.19432114 0.25527182
0.06819977 -0.0555375 0.13309614 -0.2632651 0.03135863 0.06997911 0.1435329 0.08344554
-0.16371413 0.24688536 -0.05754024 0.1913203 0.12268396 -0.04018661 -0.021441462 0.10525522
-0.06387712 0.045957457 -0.060079746 0.068306826 0.15529966 -0.04062527 0.14805597 0.02242179
-0.02479036 0.14776377 -0.13716249 0.01739819 0.009937673 0.06076343 -0.15662244 0.011811027
-0.16496266 -0.08685267 0.01289621 0.12813741 0.011621824 0.23590483 0.08019179 0.024298634
0.13479295 -0.050798614 0.2137699 0.048990984 -0.020531457 -0.020671079 -0.08235295 0.17845628
-0.04211591 -0.13622089 -0.19205107 -0.07846324 -0.03633155 -0.015890677 0.1787155 0.05326582
-0.29410776 0.10535084 -0.04999783 0.16907574 -0.018013185 0.18988653 0.04267435 -0.021890054
0.18776855 0.06636289 0.17630178 -0.17299637 0.12623264 0.06517305 0.012259647 -0.19274987
0.023928942 -0.039390434 0.04657714 -0.096365444 0.07048576 -0.1730951 0.1183019 -0.06663699
-0.14196107 0.025238603 -0.04386016 -0.15882352 -0.08468824 -0.12574543 0.05984815 0.19052354
-0.030717209 0.02884604 0.30754733 0.08360281 -0.05076414 -0.24480705 0.14436966 0.13899735
0.19593234 0.027909905 -0.17844123 0.06056001 -0.031946506 0.032438185 -0.16444634 0.08986713

lstm.weight_hh_l0 f4 [400, 100]
00000000: eec9 6dbb babc a5bd b4aa e8bd 9043 94bd
00000010: e859 abbd 7b2b 0e3d bfcd 973d fd5f fcbd
00000020: 43b6 3cbe a2ce 42bd fb07 b2bd 3942 e33c
00000030: c73b 483d a292 81bd 6c55 853d f96d 7b3b
00000040: a64a 75bd 2e37 67bd 454e 33bd 5cbb 883c
00000050: 50be 8ebd 1a70 08bc d7de ffbc dcae 0dbd
00000060: 26e6 82bd b145 a7bd 6ebd fc3c 1a9a 03bd
00000070: d053 653c b941 8d3d 3ed5 163c 253a febc
00000080: c9ae b1bd 9827 cd3b 7b66 a4bd 9d53 84bd
00000090: 9399 8b3d 596b b6bd 3ba6 b33c 3e14 143e
000000a0: 81ac ddbc 051c 823d 0c05 ac3d 8cdd c73d
000000b0: 7e0e 043d e678 ea3c ff41 cc3d 8625 5d3c
000000c0: f441 e9bc 3209 853d bf5f 853d 66ea 49bc
000000d0: cef2 7ebc 5df4 a6bd 22fe 1dbd 85c8 36be
000000e0: 0938 423d 0d2c e3bc fa9b 7abd 2196 de3d
000000f0: c353 9c3d 7eaf cd3d b764 c5bd daf0 07bd
00000100: a755 37bd e017 60bd 552b bebd 5cbc 36bd
00000110: 3582 b83d 6324 833d 5c6f fe3c 2aa0 403d
00000120: 3838 05bd 55ee 8ebc 28f6 c9bd 35c4 5c3c
00000130: d73f 203c 30e3 1fbc e204 a7bd 4803 acbd
00000140: c10a 8fbd 4b79 dd3d 538f ca3d 6ec4 373d
00000150: 1b40 2ebd 7f9e 713d 8aeb 88bc 7161 70bc
00000160: 640c 76bd f576 163d 987b ba3b 23e2 993c
00000170: 05ea 91bc 9c26 29bd a5e8 89bd df3f 803d
00000180: 9225 1b3b 09fc 76bd 5642 b7bd 5c8f 77bc
00000190: bbe3 ea3c da8c 33bd 55af c6bd 93e3 cc3c
000001a0: 785e 8b3c 442e 133c 8680 a2bb 3893 9f3d
000001b0: 53fc b0bd 6216 cdbc 2f01 103d 8335 213d
000001c0: 55c6 b13d 0500 eb3c 4140 a8bd d289 933d
000001d0: abc5 76bd 89b8 1ebb eff3 ad3d 0068 68bd
000001e0: e38e 2abd 9694 263d 4696 703d e016 393d
000001f0: 56ec 9e3d b2a5 b4bd 221a 8f3d 6f8f ccbd
00000200: 61d1 91bd 6545 353d 50ed 8d3d cb51 a8bd
00000210: cdf5 993d de9b 0ebc cbbf d4bc 0d9e 8a3c
00000220: d4f9 82bd 6029 a83d 2536 343c d39f ae3d
00000230: fad3 25bd 145b 073d 00d1 79bd 4b81 af3d
00000240: 4f00 213d 19f4 18bd cd0e 0b3d 4c8d 8abd
00000250: b91b 583c a7ea eebc 4657 53bd ceb1 6c3c
00000260: 3f4a b1bd a637 523d ca16 b73d aca1 8f3c
00000270: 1d11 b6bc e212 81bd 3ff5 2439 4b14 52bd
00000280: f545 50bd fdfd a53d abdf 57bd 8fd7 1abc
00000290: ea64 9ebd fa87 b9bd 577e b0bd 1929 83bd
000002a0: 6b1e c2bb ea46 93bd b781 b63d fa4e f23c
000002b0: 1521 3d3c 427f bfbb 8be2 23bc 269d 103c
000002c0: da86 443d 0f2f d93c ed87 e53d 6aa4 a6bd
000002d0: 89a8 9bbc 047c be3d 0e04 0d3d 5443 31bd
000002e0: 61a2 86bd 2bf7 b0bd e081 03bd 5111 a7bd
000002f0: 387a 093d ec68 48bc c7c6 38bd 3ea8 193d
00000300: e9e4 66bb fda8 82bb 9a74 b6bd c5ef f33c
00000310: 3a42 b23d 4a3e 193c 2885 9ebb c295 463d
00000320: 5b61 b53b c0b2 cfbd 30a6 ce3c 67cf 3ebd
00000330: b87a a33d c960 d93d 5260 ac3d e688 8cbd
00000340: 58fe 673d 2e95 883d bb07 2d3e d078 413d
00000350: b6ca 063e 71ef 40bc 0bf2 6d3d 8777 743c
00000360: 6d2b 6abd ed0a 173d 3472 a53d 4a47 1f3d
00000370: 148c 943d 8c6c 903c 4998 8f3d ba71 82bd
00000380: df70 943d 44a7 003d 8549 203c 3c0e c63d
00000390: b7c7 6e3d 4ac0 4b3d b9e4 6c3d c041 ffbc
000003a0: dbe6 98bd 7d63 fe3d 4afd 0cbb e475 91bd
000003b0: 2984 87be 0df0 5b3d 2f9d d23b e9a8 d4bc
000003c0: a64a 463d 52b3 41bd 1c47 303e 6db6 21bd
000003d0: 417f 06bd 94cd c03a 588c 45bd 58dd 1d3d
000003e0: fdda 903d 03c7 4dbc f66a 8fbd 6190 af3d
000003f0: 6925 423d 4319 6a3d c15d c13d bb8f 47bd
-0.003628369 -0.08092637 -0.11360684 -0.07239449 -0.08366758 0.034709435 0.0741229 -0.12322996
-0.18428902 -0.04756034 -0.086929284 0.027741538 0.048885133 -0.06326796 0.065104336 0.003836511
-0.059885643 -0.056449108 -0.043775816 0.016690902 -0.06969893 -0.008327508 -0.031234188 -0.034590587
-0.063915536 -0.081675895 0.030852046 -0.032129385 0.013997033 0.06897301 0.009206114 -0.031033585
-0.08675916 0.0062608235 -0.08027359 -0.064612605 0.06816401 -0.08907194 0.02192985 0.14460847
-0.027059795 0.063530006 0.083994 0.097590536 0.032240383 0.028622102 0.09973525 0.013497716
-0.028473832 0.064958945 0.06512403 -0.012323951 -0.015560819 -0.08152077 -0.038572438 -0.1784993
0.04741672 -0.027730966 -0.061183907 0.108684786 0.07633164 0.10043238 -0.096383505 -0.03318868
-0.04475942 -0.05471027 -0.09285609 -0.044613227 0.0900921 0.064034246 0.03105896 0.047027744
-0.032524318 -0.01744763 -0.09861404 0.013474514 0.009780846 -0.009758756 -0.08155228 -0.08399063
-0.06984473 0.108141504 0.09890618 0.044865064 -0.042541604 0.058989044 -0.016713876 -0.014671669
-0.06007041 0.03673454 0.005691003 0.018784588 -0.017811785 -0.041296586 -0.067338265 0.062621824
0.0023673517 -0.060298953 -0.089481995 -0.015109863 0.028673043 -0.0438355 -0.09701411 0.02501086
0.01701282 0.008983199 -0.004959169 0.077917516 -0.08641877 -0.025035087 0.03515738 0.039357673
0.08680407 0.028686533 -0.082153805 0.072040215 -0.060247105 -0.0024218878 0.08493792 -0.056739807
-0.041640174 0.040669046 0.058737062 0.04518783 0.07759921 -0.088206664 0.06987406 -0.09988295
-0.07120014 0.044255633 0.069300294 -0.08218726 0.07517586 -0.008704154 -0.02597036 0.016921068
-0.06395307 0.08211017 0.010999237 0.08526578 -0.04048536 0.033045843 -0.060990334 0.085695826
0.039306935 -0.037342165 0.033949662 -0.067652315 0.013190203 -0.029164625 -0.051596902 0.014446689
-0.086567394 0.0513226 0.089398935 0.017533146 -0.022224957 -0.0630243 0.0001573162 -0.051288884
-0.050847966 0.08105085 -0.05270354 -0.009450807 -0.077340916 -0.090591386 -0.086178474 -0.06404323
-0.0059240363 -0.0719126 0.0891146 0.029578675 0.011543532 -0.0058440277 -0.0100027425 0.00882653
0.047980167 0.026511697 0.112075664 -0.08136828 -0.019001262 0.09300998 0.034427695 -0.0432771
-0.0657394 -0.086408935 -0.03210628 -0.081576 0.033563823 -0.012232047 -0.045111444 0.037513964
-0.0035231656 -0.00398743 -0.08908959 0.029777417 0.08704038 0.00935323 -0.004837651 0.048482664
0.0055352873 -0.10141516 0.025225729 -0.046584513 0.07982391 0.106141634 0.08416809 -0.06862049
0.056639045 0.06669079 0.1689748 0.047234356 0.13163266 -0.011775837 0.05809216 0.014921076
-0.05717032 0.036875654 0.08078423 0.038886346 0.0725328 0.017629884 0.07011468 -0.06369348
0.07248091 0.031409517 0.009783153 0.09670684 0.05829593 0.049743928 0.057835314 -0.031159282
-0.07465907 0.1242132 -0.0021513277 -0.07102564 -0.26468018 0.053695727 0.006427429 -0.025959449
0.048411034 -0.047290154 0.17214626 -0.039480615 -0.032836203 0.0014709705 -0.048229545 0.038541168
0.07073019 -0.012559655 -0.07002823 0.0857246 0.04739896 0.057152998 0.0944171 -0.048721056

lstm.bias_ih_l0 f4 [400]
00000000: 8875 9b3d a19f 83bb 3cd2 f23d d2a9 f43b
00000010: 141e d93b e602 26bc f154 c93d d531 343c
00000020: 3682 0f3e 83ac af3d c7e7 f1bc ad2d a63d
00000030: cf76 d83d 5c6a d7bd 9593 c03d b302 033a
00000040: 52a2 8e3d d309 a3bd 9bbf 553c b2f3 f63d
00000050: 1f5a 8abc 34c8 483d 0f0f d93d 0199 8e3c
00000060: fb66 30bd 4715 583d d74d 023d 8344 a8bd
00000070: 9015 9e3d 155b 85bb 3874 c33c aa70 7c3c
00000080: c40e ca3d 3d66 ec3d 632a 813d d26e 4bbc
00000090: 5a94 503a 4e39 f8bc 36f1 0dbd fa0d d43d
000000a0: db70 3abd b441 783d 4350 793d 25b7 c93d
000000b0: 895e 9abd a354 e93d 73d2 5b3d ee99 4abd
000000c0: 0fd7 80bd 2803 aabd b643 21bd 2d50 bfbd
000000d0: f07b 913d 64ad e03d 231d 253d 0be8 883d
000000e0: b846 373c f2ba 41bd ccd0 4f3d 19a6 62bd
000000f0: d980 21bd 4643 003d c39e 623c 040a 3e3c
00000100: 3005 ba3d fd0f f3bc 6abe 813c 4348 2cbd
00000110: 8ee3 fb3c 6bc4 c73d 6f09 cebd acee fc3b
00000120: e80f 513d 4839 df3d 264b 8bbd cc9d 01bc
00000130: 6741 bc3c a49b ca3c 3008 9c3c 0f77 48bd
00000140: 51b6 b33d af78 133d 91fc 54bd e17c ba3c
00000150: fb97 013c 9c67 bb3b edfc 65bd 6196 c33d
00000160: 1c91 13bd fefe 46bd b219 6abc 73a6 5cbd
00000170: f12b cd3d 8272 84bb 238e ce3d 38cc 0d3d
00000180: 2bfd 253b bac2 c93d d33c 1fbd bb58 50bd
00000190: cfc8 58bb 16ea cbbd 1689 7b3d e129 51bc
000001a0: 3375 8abc d07e f33c db26 bb3a f1ed 823c
000001b0: 394a 4f3e f3ad 983d b7a0 e83d 5b0c aabd
000001c0: 6e5e 343d 3305 b7bd e084 843d d0cc 503c
000001d0: 5733 cc3d ee3d 653b 7d21 0d3d 63c2 67bd
000001e0: 6685 4abd eb07 ca3c 1fac 5c3d 0791 b63d
000001f0: 11f3 c13c ef3f 8abd da76 483a bee2 753d
00000200: 6ea6 bc3d 0aa0 63bc e4bd b23c e980 30bb
00000210: 5965 953d c8cc bbbc c4f7 e33d 6799 5fbd
00000220: 60cb 333e e674 093e b80e 173d 4430 d83c
00000230: b773 4cbb de3c d93c de41 e1bc 3739 c53d
00000240: 9047 86bc 83c7 95bd 1aa1 1abd 5827 85bc
00000250: 2a3a ac3c 52b2 313d 4006 b3bd 66f1 a9bd
00000260: 032f 52bc f2e5 5b3e 113f 8cbd f4a4 8c3d
00000270: dec8 22bc 5376 93bd da1a aebd 36ed 20bb
00000280: 2c77 babc 1a79 513d 3183 043e dfdc 1f3d
00000290: e62c 05bd 17fc 3b3d d6cc 483d 89ef bfbd
000002a0: 73b0 553d 2daf a5bc 221e 07bd 0f4a c13d
000002b0: ba51 9d3d 5b69 013e 710f 183c be04 603d
000002c0: 762f c2bc 308a 8b3d 85ba 8f3d 71f7 96bc
000002d0: 2563 ad3b 361f e1bc ca06 95bc ddda f83c
000002e0: c277 63bd 48df 96bd 9cc6 d3bc cc0f 40bd
000002f0: a24c b0bd 5762 823d 49a0 8e3c a2c1 02bb
00000300: 087e 21bd 0204 313d d70c 81bc 4fa8 363d
00000310: 0b5c 3d3d bb59 613c f8d9 54bd 90c7 ae3d
00000320: aced f73c eb56 8ebc 54d7 d83c 3652 f13b
00000330: 518c 3b3b 6427 903d 6b35 2d3d 1095 283d
00000340: f002 763d 204a bbbc 2a43 3e3d dd14 0d3c
00000350: 83ef b8bd 0b41 91bd 37b2 473d ee91 803d
00000360: 33ac e5bc 8048 60bd 8089 043d 7993 f03c
00000370: 4dea 8e3d de60 d53b ee75 8e3d 7264 0a3d
00000380: 9e8c 6abd 4b84 d93c 198d 873d 5961 6c3d
00000390: 7c49 793c fce8 3d3d 46d1 743b 0aa6 6f3d
000003a0: 9759 223d 6a7e f0bc 8959 c4bb 3a9a d9bc
000003b0: c27f 0abd b23c 95bd 8636 7f3c 61a6 18bd
000003c0: db64 cdbc e467 46bc 2cd8 b6bd 05c9 3cbc
000003d0: 0793 43bd 5769 51bd 95d6 5ebc 40a7 31bd
000003e0: e1fa df3c b10c 0b3b 1688 5cbd 277c 483d
000003f0: 0ef6 093d bb6f 95bc a257 cf3c 23ca 4ebd
0.07590777 -0.004016832 0.11856505 0.007466533 0.0066259 -0.010132527 0.098306544 0.010998209
0.14014515 0.08577826 -0.029529465 0.08114181 0.10569536 -0.10518333 0.09403149 0.00049976556
0.06964554 -0.07960858 0.013046171 0.120582 -0.016888676 0.049019054 0.10598575 0.017406942
-0.04306696 0.052754667 0.031812515 -0.082161926 0.077189565 -0.0040696957 0.023859128 0.015407721
0.098660976 0.11542938 0.06306913 -0.012416558 0.00079566764 -0.030300763 -0.034653865 0.10354228
-0.045517784 0.060609534 0.06086756 0.09849385 -0.075375624 0.11393096 0.053667497 -0.049463205
-0.06291019 -0.08301383 -0.039371215 -0.09341464 0.07103717 0.10970572 0.04031099 0.06684884
0.011186294 -0.047297426 0.050736234 -0.055334184 -0.03942952 0.031314157 0.013831797 0.011599068
0.09083021 -0.02967071 0.015837867 -0.0420611 0.030748155 0.09754261 -0.10060393 0.0077188816
0.05104056 0.108995974 -0.06801443 -0.007911157 0.022980405 0.024732418 0.019046873 -0.048941668
0.087750085 0.036003765 -0.05199868 0.022764625 0.00790977 0.0057191383 -0.056149412 0.09550167
-0.03602706 -0.048583023 -0.014288353 -0.053869676 0.10018147 -0.0040419707 0.10085704 0.034618586
0.0025327902 0.09851594 -0.038876366 -0.05086587 -0.0033078676 -0.09956758 0.061410032 -0.012766332
-0.016901588 0.029723555 0.0014278548 0.0159826 0.20243157 0.07455053 0.11358779 -0.08303138
0.044035368 -0.089365385 0.064706564 0.012744144 0.0997073 0.003497954 0.034455765 -0.056581866
-0.049443625 0.024661979 0.053875085 0.089143805 0.023675473 -0.067504756 0.0007647105 0.06003069
0.092114314 -0.013893137 0.021819063 -0.0026932305 0.07294721 -0.022924796 0.11131242 -0.054589655
0.1755805 0.134235 0.03687927 0.026390202 -0.00311969 0.026518282 -0.027497228 0.096300535
-0.016391546 -0.073134445 -0.037751295 -0.016254112 0.021023829 0.04338295 -0.087414265 -0.08297996
-0.012828591 0.21474436 -0.068479665 0.068674 -0.009935586 -0.07200303 -0.08501215 -0.0024555451
-0.022761904 0.051140882 0.1294067 0.039029 -0.03251352 0.04589471 0.04902347 -0.093718596
0.05217023 -0.020225132 -0.03298772 0.09437954 0.07681604 0.12637846 0.009281025 0.054692023
-0.023704272 0.068134665 0.07017998 -0.018428536 0.00529136 -0.027480703 -0.018191714 0.0303778
-0.05553413 -0.07366806 -0.02585154 -0.046890065 -0.086083665 0.06366413 0.017410414 -0.001995184
-0.039426833 0.043216713 -0.015753193 0.044594105 0.046230357 0.013754304 -0.051965684 0.08534157
0.030264698 -0.01737543 0.026469864 0.0073645366 0.002861757 0.07038763 0.04228727 0.041157782
0.060061395 -0.022862494 0.04645077 0.008610931 -0.09030058 -0.07092484 0.048753943 0.06277834
-0.028036213 -0.05475664 0.032357693 0.029367195 0.06978283 0.0065117916 0.06956087 0.0337872
-0.05726301 0.02655234 0.06618709 0.057710025 0.015215274 0.04636477 0.0037356182 0.058507957
0.03963622 -0.029357154 -0.0059921187 -0.026562799 -0.033813246 -0.07286967 0.015576964 -0.037268046
-0.025072506 -0.01210973 -0.0892795 -0.011522536 -0.047747638 -0.05112585 -0.013600965 -0.043372393
0.027341308 0.0021217281 -0.05384072 0.048946526 0.03368192 -0.018241754 0.025310341 -0.05048574

lstm.bias_hh_l0 f4 [400]
00000000: af8b a8bd d515 443d 125f d23d ec5a a9bd
00000010: 2f68 4b3d 1b8b 58bd a0ab 983d ed6d d6bb
00000020: afad c53d d8b6 22bd a702 5ebd 07b6 b2bc
00000030: 3ac7 293e 287f a6bc e833 b2bc 78e6 d5bd
00000040: bd3d 9abd 3188 bf3c 2f9d 8c3d b547 f23c
00000050: 44bd c7bc ef0b e9bc 69b3 8a3d ccda b83d
00000060: a830 f9bc d0dd ae3d fdf7 67bc 6fee 953c
00000070: 1ed7 e33c 14e8 b33d 8327 86bd 622f ff3c
00000080: dc8d 9c3d 3c75 28bd c49e d9bc 0f6a 063e
00000090: cb3a b63d b7c9 733c 1875 50bc 2e94 1cbd
000000a0: c957 b23d 4cd6 933d f79a 5c3d 054a d03d
000000b0: 9d71 743d a893 d0ba df4f b73d e5c0 433d
000000c0: bd1d 39bd f6e1 5b3d eac7 a03d 930b 243d
000000d0: 8ac8 7b3d e6d4 1ebd 0ee8 ba3b 3c3d 0d3d
000000e0: ffe3 333d b4e9 053d 4695 56bd 454d 1abc
000000f0: 0b8d dc3d 5b27 36bd 30ab ee3d cac8 9a3d
00000100: d897 963d b0a7 79bd 0d7d 16bd 0a1e 2bbc
00000110: b47d 9f3d 288c 573d cd47 10bd 4661 513c
00000120: 986c 65bd 4177 75bd eb87 a93d c9b6 f6bb
00000130: 5205 a43d 1622 d7b9 1614 8bba 6944 d43d
00000140: 6644 9b3c e8b4 b3bd 4d8e 163d c841 5c3c
00000150: dadf 953d fc65 b9bc 8c12 2ebd 930b a2bd
00000160: a1b8 c2bb 9de6 743d 888a 97bd 4b33 433d
00000170: 0840 5bbd 001b 93bc 5ceb 8f3d f8c7 063e
00000180: f92d 56bd b515 633d 43dc 373d 5c92 853c
00000190: e790 fd3c c997 b6bd 2013 a03c f36c c93b
000001a0: 9f3a 463d b004 f63c 3b7d 3fbd 6931 293c
000001b0: 0035 363e c1ad 6a3d 6bd9 0d3e 2f35 3c3d
000001c0: aa88 7d3d 038d 543d 0356 4bbc eaa4 5ebc
000001d0: b28a a93d 3f6d a93d d5f0 d43d c9e3 703d
000001e0: 8340 213d 4d33 8fbd 734c f13d e454 913d
000001f0: dcb5 d0bd a6a9 4fbd 8d2e 513d 7666 833c
00000200: 4a18 4b3d 7e24 52bb 35c7 703c d2c7 c2bd
00000210: 8de0 723d 621c 263e efe2 3a3d cd43 e83d
00000220: 0cf8 0b3d db5e bb3d 8bcf 0f3e fa27 8bbd
00000230: b0c1 e53d 5f19 85bc 8001 a7bc 21a4 89bd
00000240: cba7 84bc c633 32bd 9a42 7abc 4110 ffbc
00000250: 114c 8e3c 3621 8bbb b0c3 cfbc d5b9 32bb
00000260: 315a 353d aa22 203e a59f d23d 3b59 e5bc
00000270: 502c 9a3c 234b ad3d 03d5 9b3c dbf3 61bd
00000280: e8b4 0ebd 8e27 153e 7b0a 943c bc40 37bd
00000290: 2778 5d3d 8430 443c 7f9a d23d f407 633d
000002a0: b89f 913b 145b 53bd 5f7c bebd d4cc 97bb
000002b0: 962c b5bc 76c5 863d 67ef 553d ecb3 ec3d
000002c0: 15d2 47bd 6bff 83bd 6105 fb3d 5301 363d
000002d0: e54f e73d a527 bf3d 4d5e c6bc 257c efbc
000002e0: 1e52 603d 9caa bfbc ef48 ea3d b397 4c3c
000002f0: e568 b93d a84d 1dbd 40cc bc3d e30a d83c
00000300: 5f6f 21bd 8b76 6abb 8709 783c 8b3f c3bc
00000310: 261b ecbc 45b8 6abd cc55 9abd 6eb2 a53b
00000320: 026a 33bd 136b fabc 0f0d 80bc bc03 643d
00000330: bd0b 46bd d5a0 a8bd cdb7 27bd 6677 db3c
00000340: f07c 843c 7d96 6d3c a70a 143d fb54 2fbd
00000350: 5cef a23d 0c7f 0b3d b176 633b 80e2 64bc
00000360: 979f e7bb d7aa 943d 43c8 b1bc fe4b 75bd
00000370: 2d1a 58bd 2ab9 b7bd 5bea 57bd ddf7 73bc
00000380: acea 1b3d 7154 ac3c 63c7 8ebd 3e49 8cbd
00000390: f407 893d d0c8 54bd c3dc 6dbd 068f 423d
000003a0: 3a0c 823c e240 a7bc bf62 613d 995d 6f39
000003b0: 4481 4abd 0689 773d b1b5 dd3c 8d0b dbbc
000003c0: 2445 af3d a85e 95bd 1259 343d 1861 f63c
000003d0: 29a0 1bbd c10b 3f3d 0ca8 7c3d 5f8c b6bb
000003e0: 6207 103d 1464 96bd 1f2f 03bd 707d 9bbc
000003f0: fc8d 2c3d 2ea6 ac3c bd69 2abc 473e bb3c
-0.082297675 0.047872383 0.102720395 -0.08269295 0.049659904 -0.052867036 0.0745461 -0.006543866
0.09652268 -0.039725155 -0.05420175 -0.021815313 0.16579905 -0.020324305 -0.021753266 -0.10444349
-0.07531307 0.02338037 0.06865918 0.029575208 -0.024382241 -0.028448073 0.06772501 0.09026107
-0.030418709 0.08538401 -0.014158246 0.01830217 0.027812537 0.087845 -0.06550505 0.031150524
0.07644245 -0.04112743 -0.026564963 0.13126396 0.088979326 0.014879636 -0.01272323 -0.038227253
0.0870815 0.07218608 0.053858723 0.10170368 0.059678663 -0.0015913146 0.08950781 0.04779138
-0.045194376 0.05368229 0.078506306 0.0400501 0.061470546 -0.038777255 0.0057039326 0.034482226
0.043918606 0.03269358 -0.052388452 -0.009417837 0.10769089 -0.044471126 0.11653745 0.07557829
0.07353181 -0.060950935 -0.03674035 -0.010444174 0.07787648 0.052623898 -0.035224725 0.012779539
-0.056011766 -0.059928183 0.082778774 -0.007529114 0.08008827 -0.00041033392 -0.0010610844 0.10364611
0.018953513 -0.087747395 0.036756802 0.013443418 0.07318087 -0.022631638 -0.042498156 -0.07912364
-0.0059424196 0.059790242 -0.073994696 0.04765634 -0.05352786 -0.01795721 0.07027313 0.1316222
-0.052289937 0.055440623 0.044887792 0.016305141 0.030952884 -0.089156695 0.01954037 0.006147021
0.04839575 0.030031532 -0.04675029 0.010326722 0.17793655 0.05729461 0.1385247 0.045949157
0.06189791 0.05189229 -0.0124106435 -0.013589123 0.08278407 0.0827279 0.103974976 0.058810983
0.039368164 -0.06992207 0.1178216 0.0709627 -0.10190937 -0.0506989 0.051069785 0.016040068
0.04958371 -0.0032065208 0.014695932 -0.09510769 0.05929618 0.16221765 0.045626577 0.11341057
0.034172103 0.091489516 0.14044015 -0.06794734 0.112185836 -0.01624745 -0.020386457 -0.06720758
-0.016193291 -0.043506406 -0.015274668 -0.03113568 0.017370256 -0.0042459024 -0.025361866 -0.002727141
0.044275466 0.15638223 0.10284356 -0.02799665 0.018819958 0.08461597 0.01902247 -0.0551642
-0.034840494 0.1456587 0.018071404 -0.04473947 0.054069664 0.011974458 0.10283374 0.055427507
0.004444089 -0.05160053 -0.09301066 -0.0046325717 -0.022115987 0.065806314 0.052230265 0.11557755
-0.048784334 -0.064452015 0.12256885 0.044434857 0.112945355 0.093337335 -0.024214888 -0.029234001
0.054765813 -0.023396783 0.11439692 0.01248734 0.0905321 -0.038404137 0.09218645 0.026372379
-0.039412852 -0.0035776224 0.01513899 -0.02383401 -0.02882154 -0.05730464 -0.07535896 0.005056671
-0.04380227 -0.030568635 -0.015631227 0.055667624 -0.04835104 -0.08233801 -0.04094677 0.026790332
0.016172856 0.014501211 0.03614297 -0.042805653 0.079558104 0.03405671 0.0034708197 -0.013970017
-0.007068585 0.072591476 -0.021701938 -0.059886925 -0.05275934 -0.08970864 -0.052713733 -0.014890638
0.038065597 0.021036359 -0.06971624 -0.06849907 0.0669097 -0.051949322 -0.058071863 0.04749968
0.01587497 -0.02041668 0.055025812 0.00022827684 -0.049439684 0.06043341 0.027064176 -0.026738906
0.085581094 -0.07293445 0.044030257 0.030075595 -0.037994538 0.04664207 0.0616837 -0.0055709328
0.03516329 -0.07343307 -0.03202736 -0.018980712 0.042127594 0.021075334 -0.0104011865 0.022856845

lin.weight f4 [64, 100]
00000000: d219 ad3d c59a 953a f863 2e3d fc08 803d
00000010: 4285 b1bd 5772 9fbc 8678 7d3d 8d2b 0c3c
00000020: 96af 1b3d e729 98bd 99f9 f3bd 5139 81bc
00000030: ade7 55bd 4191 573c ff9e 85bc 7e26 823d
00000040: 2db4 8bbb 60e3 0cbd 7ed6 87bc 53ca 12bd
00000050: 1f6d 49bc 5047 e03c f460 58bc f449 0d3d
00000060: be60 1cbc 602e 9abd 25c3 2f3d e31c c6bd
00000070: 6ed1 ffbd 7fb4 86bd 5b90 cfbb 4f82 663d
00000080: e438 bcbc e524 cb3a 0e29 b53d e23e 0f3e
00000090: 0c4a 153d fd73 063c 4799 dd3c ec18 9b3d
000000a0: 0a5f 44bd e0ba b93a 9358 9d3d 590f d73c
000000b0: ed66 0d3d c454 11bc 90d7 21bd e8ba a4bc
000000c0: 1665 723d c057 ae3d e798 ff3c bf63 cd3d
000000d0: 7591 ddbc 6a5f 923d 430e 603d 6354 f4bc
000000e0: 085b 1d3d 10b7 6fbd 2f05 273d 0070 a3bc
000000f0: 11ce 22bd 667a 0ebd 5a63 90bd c4a2 9b3d
00000100: 8bb4 0d3d 7c79 a83c f633 bcbd 452e b2bc
00000110: 5ab3 d2bd 820a 60bd c815 133d 40de 61bd
00000120: 06e1 66bd 8050 243d 2035 93bc 610b 4e3d
00000130: 5bca 713d 75ee ba3d 0ed0 ea38 acf7 5d3d
00000140: eb74 e1bc 9050 8ebb b3d7 f83d 2282 9b3d
00000150: 8762 a83d 943f 0a3d 89c7 03bc 4c51 d0bb
00000160: 00d0 d33c 682c 21bd b360 b2bd a67e c33d
00000170: 1112 af3c f092 183d 070f aabd 79aa 39bc
00000180: 1117 b73c fcdf 9e3d 5d8c 91bd cec8 ddbc
00000190: 1877 9cbd 1932 98bd fe1e f5bc 7790 c9bd
000001a0: 21c5 c33c add0 93bd c4db ab3d 8f63 34bd
000001b0: b8c1 c23c a374 253d ec18 ddbc f57b 0ebd
000001c0: 200d 91bd 7e98 1a3d 90cd 823d 6412 533c
000001d0: 8181 f0bb 7048 4f3d 938e 29bd 43fb b9bd
000001e0: 42d5 053d 5828 d13c 4114 54bd d430 1dbc
000001f0: a721 8a3d 7fd3 803c 4bf3 4b3b 6962 a33d
00000200: 3d56 ea3b 097b b63a 2dfa 143d 0de2 f3bb
00000210: 245a a4bd de6e 40bc cba0 0f3b 3c35 b7bc
00000220: 02c7 afb9 b03a d93c ba0e 3abd ccd2 af3d
00000230: a859 4bbd 4214 43bd 6aaf cabb ecbb f23c
00000240: 9426 54bd 4ea3 d1bd 467d bdbb 7dee 7ebd
00000250: 18d4 c43d 9a46 a839 328e 82bd 4dd3 7a3d
00000260: 8e0b 8eba 7024 cdbd fbaa cabb 3c3d abbc
00000270: 27ce aa3d f85c 08bc 284a f7bd 8f49 7ebd
00000280: 8d59 063d a1f2 6bbb 5d2a 1cbd bc19 da3d
00000290: 29c4 debd 7718 51bc bfae 383d 4bc2 e9bc
000002a0: 011c b33d 4d04 1ebd a91f c0bc ac7a 233d
000002b0: d61f e0bc 9baf 9cbd 915b 1dbd d2f3 32bc
000002c0: 1ec7 bebc 6ab7 25bd b43c 033d db25 57bd
000002d0: d565 a0bd 6884 293d cb28 98bc b9da fd3d
000002e0: 22a4 8f3d f376 b9bd d280 81bd a67d 853c
000002f0: 988d 5b3c 29f8 94bd 5847 ddbd 11ca a13d
00000300: e203 43bd a2d6 f43a ac6e adbd dbc8 7abd
00000310: 4df4 cabd 537d 4ebd 7a24 c1bd 170c 203c
00000320: b9b4 6e3e 2b93 ba3b 68d6 0abe a455 013e
00000330: 33db e23c 6bd4 0c3e 7587 c63d 0bce 06be
00000340: 160d 46be 7bf8 2b3c d591 ac3d 6ca0 2cbd
00000350: 86d7 8a3d e7da b2bc faac 94bc e5fc d5bb
00000360: 873b 77bd 80e8 63be c8e5 c03c 06a6 03be
00000370: 81c2 e4bd 65ec 343e 3f69 873d ce94 bcbd
00000380: 4e99 27be b988 9abe f05a 473d 2d2e 5f3d
00000390: 6597 a03d ad7b a0bd 2bba 593e e471 973d
000003a0: 9d18 8dbe e1b0 4d3e c8bf 26bd 6949 cbbd
000003b0: 9f9e 72bd 98fa d6bd 0f60 32bd b233 7abc
000003c0: 550d 16be 0b4e 50bc fcbe 033e a0d3 31be
000003d0: c0d1 81bc bf65 6abc 57fa 1dbe d451 11bd
000003e0: d06a 1dba ef62 fe3c bbb8 75bd 12aa adbc
000003f0: 7a50 e8bd 8699 1b3e f213 20bb eb84 623d
0.084521905 0.0011413923 0.042575806 0.06251714 -0.08667995 -0.019463701 0.06188252 0.008555305
0.03800925 -0.07429867 -0.11912841 -0.0157744 -0.052222896 0.01315719 -0.016311167 0.06354998
-0.004263422 -0.03439653 -0.01658177 -0.035837483 -0.012294083 0.027377754 -0.013206709 0.034494355
-0.0095445495 -0.075283766 0.042910714 -0.096734785 -0.124911174 -0.06577396 -0.006334347 0.056276616
-0.022976346 0.0015498666 0.08845721 0.13988832 0.03644757 0.008206365 0.027050627 0.07573113
-0.0479422 0.0014170073 0.0768291 0.026252436 0.034521986 -0.008870307 -0.039512217 -0.020108655
0.059178434 0.08512831 0.03120084 0.10028791 -0.027046898 0.07147105 0.0547011 -0.029825395
0.038416892 -0.05852419 0.040776428 -0.019950867 -0.0397473 -0.034784697 -0.070502 0.075994045
0.034596007 0.02056574 -0.09189598 -0.021750579 -0.10288115 -0.05469752 0.035909444 -0.055143595
-0.056366943 0.040115833 -0.017969668 0.05030382 0.05903087 0.09127513 0.00011196743 0.054191276
-0.027521571 -0.0043431 0.12150516 0.0759318 0.082219176 0.03375204 -0.008043178 -0.0063573476
0.025856018 -0.03934899 -0.0870985 0.09545641 0.02137092 0.037249506 -0.083036475 -0.011332148
0.022349866 0.077575654 -0.0710685 -0.02707329 -0.07639903 -0.0743143 -0.029922005 -0.098420076
0.02389771 -0.07217536 0.08391526 -0.04404026 0.023774013 0.040394437 -0.026989423 -0.034786183
-0.070825815 0.037743084 0.06386864 0.012882803 -0.007339657 0.05060619 -0.041395735 -0.090811275
0.03267408 0.025531933 -0.051777128 -0.009594161 0.067447 0.01572585 0.0031120356 0.079777546
0.0071513937 0.0013922165 0.0363714 -0.007442719 -0.080250055 -0.011745183 0.0021915908 -0.022364251
-0.00033526873 0.026517242 -0.0454242 0.08585128 -0.04964605 -0.04762674 -0.0061854618 0.029630624
-0.051794603 -0.10236226 -0.005782756 -0.06223916 0.09610766 0.0003209606 -0.06374778 0.06123667
-0.0010837184 -0.100167155 -0.0061849332 -0.020903222 0.08340102 -0.008322947 -0.12074691 -0.06208187
0.032800246 -0.0036002772 -0.03812634 0.1064944 -0.10877258 -0.0127621805 0.045088526 -0.028535029
0.08745576 -0.03857832 -0.023452597 0.03991191 -0.02735893 -0.076506816 -0.038417403 -0.010922389
-0.023288306 -0.04045812 0.032040313 -0.052526336 -0.07831923 0.041386038 -0.01857414 0.12395234
0.07013728 -0.09055891 -0.06323399 0.016295265 0.013400458 -0.07273895 -0.10804623 0.07899869
-0.047611125 0.0018679688 -0.084683746 -0.061226707 -0.09909878 -0.050412487 -0.094307855 0.009768507
0.23311128 0.0056938133 -0.13558352 0.12630326 0.027692413 0.13752906 0.09693805 -0.13164537
-0.1934093 0.010496254 0.08426253 -0.042145178 0.06779389 -0.021832896 -0.018148888 -0.0065303915
-0.060359504 -0.2225666 0.023547068 -0.12856302 -0.11169911 0.17668302 0.06611871 -0.0920807
-0.16367075 -0.30182436 0.04867071 0.054487396 0.07841376 -0.07836089 0.21262424 0.0739477
-0.2755784 0.20087005 -0.04071024 -0.09926111 -0.059233304 -0.10497016 -0.04354864 -0.015271114
-0.14653523 -0.012713919 0.12865824 -0.17365885 -0.015847087 -0.014306485 -0.15427528 -0.035478428
-0.0006004991 0.031053035 -0.059990626 -0.02119926 -0.11343475 0.15195283 -0.002442595 0.05530254

lin.bias f4 [64]
00000000: 01fa 693d e547 0c3e 7a87 183d 3790 943c
00000010: bb7d e13d 3702 5d3d 7b66 b63c 90c5 fbbb
00000020: 2879 d13c 0460 883d d15d dfbd 89b8 ff3d
00000030: 4143 6fbc 200e 03be 073b 863c be7f 63bd
00000040: 79ca c23c e23b b53d 050c a23c 64e0 3dbc
00000050: 592c 8c3c acf1 d23d d7f3 033e e00e c03d
00000060: a7d5 003d 3c54 e8bd 89d2 673d c68b 8b3d
00000070: 7816 553d ec1d afbd e74c 813d cc42 cc3d
00000080: 1d56 b1bb c190 693d 7e61 943d cb9d 0c3c
00000090: 6e03 ddbd f90d 763c 7062 86bd d6db 043e
000000a0: 2ad1 c1bd 0288 5fbc d6e2 a7bd f391 823c
000000b0: 9ee0 61bc ff7a d63d 5950 773b 8485 8a3d
000000c0: dd96 e83c 3e50 103d 33bf debd 515b a93d
000000d0: bf9c 81bd f9af d8bd 6297 423c 60f1 cd3d
000000e0: d76c 843c 20db 8d3d 6477 d63d 0112 a0bd
000000f0: bb0c 90bd f8e3 ccbc 2cf5 1cbc fccf b5bd
0.057123188 0.136993 0.037238576 0.018135173 0.11010309 0.05395719 0.022265663 -0.0076834634
0.025570467 0.066589385 -0.10906566 0.12486369 -0.014603437 -0.12798357 0.016385568 -0.055541746
0.023778187 0.08849312 0.019781122 -0.011589143 0.01711099 0.103000015 0.12885986 0.09377837
0.031453755 -0.113441914 0.056597266 0.06813769 0.05202338 -0.08550629 0.06313496 0.09973678
-0.005411877 0.057022814 0.07245158 0.008582543 -0.1079167 0.01501798 -0.06561744 0.12974486
-0.09463723 -0.013643267 -0.081975624 0.015938735 -0.013786463 0.104726784 0.00377371 0.06763747
0.02839225 0.035232775 -0.10876312 0.0826937 -0.06328725 -0.10580439 0.011876913 0.10055804
0.01616518 0.069265604 0.10471991 -0.07815934 -0.07033678 -0.025011048 -0.009579938 -0.088775605

lin2.weight f4 [24, 64]
00000000: 7ad8 963d 51cd 043e 1797 093e 4b0f e03b
00000010: c3c7 c73d bfc0 71bd 912c f8bc 0efb 04bc
00000020: b261 263e 4939 b63d 57c9 10bd b4e8 053e
00000030: 31ec 10be 75a1 0fbe 761e 9a3d 6c15 ff3d
00000040: db23 053e ed21 9bbb 6e31 893d 4703 db3d
00000050: b2c4 2ebe 3338 1b3e 4f72 04bd 9ad1 183e
00000060: 2072 bd3c 8f52 95bd 0ece 9cbd 59e5 b3bd
00000070: 5ead 1c3d 49a4 d0bd 11f6 eebd e76d 203e
00000080: 349b 183e 1966 953d 992c 023e 9004 0b3e
00000090: fb78 dabc 60ad 36be 486c f83d f1c1 203e
000000a0: 9d64 b33d 869e 3abd 9553 d73c 3091 463d
000000b0: 615b cc3d 6cf6 643c 1557 b9bd 36d8 7d3e
000000c0: 44e9 583d c48a e63d d3fb 3e3d 4d9f 473d
000000d0: 7053 7f3d 3836 ab3c 5d80 babc 7d14 ca3d
000000e0: eac9 3cbd 44aa b6bd 5382 95bd 0db7 583d
000000f0: ddf8 87bc 5e9d 71bd 7c42 9cbd 696f 5c3d
00000100: af8e ea3d d70b d63c 6f17 c93d bc86 363e
00000110: 967b 8ab9 3100 ce3c 0e95 903d 50d5 6cbd
00000120: dafe 95bb 5297 913d 3fb0 0a3d 2c20 a13d
00000130: 89ac 0cbe 7650 54be b6ab fc3d 4c35 923d
00000140: e1a0 62bd 8630 013e 2d89 40bd 1ef7 8f3d
00000150: 9345 0ebe 455e b33c aa92 b03d 70e4 0e3c
00000160: c136 d13d 53ba a93d 40b3 3c3b 8def 26be
00000170: fed9 85bd 5f5a 21bd 8d89 0e3d ce49 e63c
00000180: 52d2 093e 461f 4a3d 0865 17bd bb47 963c
00000190: 8d07 a83d 8f39 bdbd 9bad 72bc 696d 033e
000001a0: 5627 663d 553d 02bd efc0 253d 0a5c 313d
000001b0: 31ec 083e a016 0c3e e455 ccbc bc6e 233e
000001c0: 71f6 4abd 262e 3b3e e34d a1bd 0454 0b3e
000001d0: a49d ba3d 458b a9bd d712 edbc c8b5 04bd
000001e0: 81ba 793d 8f21 343d db8f 1c3d 14d0 a73d
000001f0: 5d48 953a 5b51 a5bd e311 213d d451 e8bd
00000200: d785 203d 9ae8 863d 6b9c 0a3e 13a4 803e
00000210: 49b6 0c3d f955 9ebd 5229 3f3b 7257 e03d
00000220: 1c85 8a3d ac3f 7d3d 1444 57bd abfb 2a3c
00000230: 911a 62bd 6bce eabd eb7f 4e3e 7b87 423a
00000240: 642e 833d 15e3 3a3d 92e1 b8bd d2ee ad3c
00000250: 9ea0 49bd 620e c03c 75f2 463d 9c69 2b3d
00000260: 77e8 b13d 3aff 8dbd 64d2 233d a5aa 50bd
00000270: 1b13 dd3d 94dc 0dbd 8e96 68bc 8425 4dbd
00000280: d710 4a3e 7812 90bd a467 923d 4f89 94bd
00000290: c7cb 8abc 63c2 a93d ca8b fa3c 2fec af3b
000002a0: 7d94 6dbd 1018 d8bd bacd 983d 45a7 41bd
000002b0: ede2 ee3d 7a3c 5cbd 75b8 06bd b5fd 0d3e
000002c0: d583 acbd 6c5d d73c af17 8e3d 0591 983d
000002d0: ab68 b6bd 76db f73d 9ec7 c43b 7ba9 47bd
000002e0: f95b 943d 56a3 b43c 1172 ba3d 6620 92bb
000002f0: a3c2 28bd e131 2dbe 71e4 153e 0353 abbd
00000300: 0d29 523d 9585 5e3d 5a08 2e3e 565c 1b3e
00000310: e6e4 0abd 2c95 31bd b8c7 5c3d a88e d3bc
00000320: f8dd 133e c335 d73d 2165 8a3d d719 02bd
00000330: 7cf4 99bd 4a3a 0abd af07 e23c b6ee de3d
00000340: 3987 edbc 69b2 d73d d91a d3bd 59ec 00bd
00000350: 8d53 e5bc 4e5b 5fbd 7b90 263e 97f5 46bd
00000360: 2f9c dc3d f842 933d 14ee ccbc b13a 403d
00000370: a191 82bd 4346 dfbd 2e08 a3bd 67dc 67bd
00000380: ba01 2e3d 6322 62bd b4a4 4ebd e52e b53d
00000390: b2c8 e93d bf5c 683e ad75 5cbd f539 863d
000003a0: a095 ccbc 09e9 fbbd 8f2b 5d3d 252b a3bb
000003b0: ca6b 803d 5c2b 803d 4a9e b53c a8bb 573e
000003c0: 8a3d 863b 9c8c b03b c296 e3bc b591 96bd
000003d0: a23c ac3d f6a3 c13d 04a1 163d 7001 e03d
000003e0: 220d ce3d cfb4 1cbd 91cf d83d 842e b7bd
000003f0: e3da a43c ed36 37be a77c b53d f162 6f3d
0.073655084 0.12968947 0.13436542 0.0068377606 0.097548984 -0.059021708 -0.030294688 -0.008116497
0.16248205 0.08897645 -0.035348263 0.1307705 -0.141526 -0.14026435 0.07525341 0.12455258
0.13001959 -0.004734269 0.06698881 0.106939845 -0.17067221 0.15158157 -0.032335576 0.14923707
0.023125708 -0.072911374 -0.07656489 -0.08783979 0.038251273 -0.10187585 -0.11668027 0.15666924
0.14902955 0.07294864 0.12712325 0.13575959 -0.026669016 -0.17839575 0.12130028 0.15698983
0.08759425 -0.045561336 0.026284972 0.048478305 0.09978367 0.013974767 -0.09049813 0.24789509
0.052956834 0.11256936 0.046626877 0.048735905 0.06233543 0.020899877 -0.022766287 0.09867189
-0.046090998 -0.08919194 -0.07300248 0.052908946 -0.01659816 -0.058987968 -0.076298684 0.053817187
0.11452996 0.026128693 0.09818923 0.17824835 -0.0002641349 0.025146576 0.0705968 -0.05782062
-0.0045775 0.0710894 0.033859488 0.078674644 -0.13737692 -0.20733818 0.12337439 0.07139072
-0.055329207 0.12616166 -0.04700582 0.07029556 -0.13893728 0.021895537 0.08621724 0.008721456
0.102155216 0.08287492 0.0028793365 -0.16302319 -0.06535719 -0.039392825 0.034799147 0.028111365
0.13459137 0.04934623 -0.036961585 0.01834475 0.08204565 -0.09239494 -0.014811899 0.12834705
0.056189857 -0.031796772 0.0404672 0.043300666 0.1337135 0.13680506 -0.0249433 0.1596021
-0.04955143 0.18279323 -0.07876184 0.13606268 0.09112099 -0.08278517 -0.028939648 -0.032399923
0.06096888 0.043977316 0.03822313 0.08193985 0.0011389364 -0.08072158 0.0393237 -0.113437325
0.03919014 0.06587334 0.13536231 0.2512518 0.03435353 -0.07731242 0.0029168916 0.10954179
0.0676367 0.0618283 -0.05255516 0.010435979 -0.055201117 -0.11465152 0.20165984 0.0007420701
0.06405333 0.04562672 -0.09027399 0.021232042 -0.049225442 0.023444358 0.04857107 0.041848764
0.08686917 -0.06933446 0.039995566 -0.05094399 0.1079466 -0.034634188 -0.014196051 -0.050084606
0.19732986 -0.07034773 0.07148674 -0.07252752 -0.016942872 0.082890294 0.030584235 0.0053687315
-0.058002938 -0.105514646 0.07461114 -0.04727866 0.116643764 -0.053768612 -0.032890756 0.13866313
-0.084235825 0.026289664 0.06938111 0.07449535 -0.089066826 0.12102406 0.0060052415 -0.048745614
0.07244105 0.02205054 0.09103788 -0.0044594286 -0.041201245 -0.16913559 0.14637925 -0.083654426
0.05130868 0.054326613 0.16995373 0.15171942 -0.0339097 -0.043355152 0.053901404 -0.02582486
0.14440143 0.10508301 0.0675757 -0.031762924 -0.07517335 -0.033746995 0.027591554 0.10885374
-0.028995143 0.10532076 -0.10307855 -0.0314754 -0.027993942 -0.054530434 0.16266052 -0.048574056
0.10771977 0.07190508 -0.025015868 0.046930972 -0.06375433 -0.10902073 -0.079605445 -0.056606676
0.042482115 -0.055208575 -0.050450042 0.08846835 0.11415233 0.2269163 -0.053823162 0.06554023
-0.02497369 -0.12300307 0.05399662 -0.0049795085 0.06270559 0.0625827 0.022170205 0.21067679
0.0040966915 0.0053878557 -0.027781848 -0.0735201 0.08410002 0.09455101 0.03677465 0.10937774
0.10061099 -0.03825837 0.10586465 -0.08944419 0.020123905 -0.17892046 0.08861666 0.058443967

lin2.bias f4 [24]
00000000: 1a57 82bd 460e 64bc 2645 433d 9b92 213d
00000010: 2a8e c73d d007 b93d 55cb d23d f522 9e3c
00000020: c46b 56bd 622b a23d a2f0 1dba 129b 67bc
00000030: ecfc 89bd 2368 013d b15d cc3c fc5a ccbc
00000040: 4a3f 873b 8c58 353b d677 afba b826 983d
00000050: 0b5c c43c 6be6 f33c 3202 17bd 18fc 49ba
-0.063642696 -0.013919419 0.047673367 0.039446454 0.097439125 0.09034693 0.10292689 0.019303778
-0.052348867 0.07918431 -0.0006024932 -0.014136093 -0.06737694 0.031593453 0.02494702 -0.024945728
0.0041274177 0.0027671186 -0.0013387154 0.0742926 0.02396967 0.029772958 -0.036867328 -0.00077051064
