models/LSTM_seq.pt (torch_old, 715809 bytes, 8 tensors)

lstm.weight_ih_l0 f4 [800, 1]
0.064923346 0.07464068 0.010670182 -0.056758717 -0.0035279167 -0.08517813 0.09577559 -0.0984986
0.30682555 -0.034332205 0.065627836 -0.10825714 0.19093093 -0.02651989 -0.04073879 0.0050935987
-0.22859769 0.017043091 -0.043085758 0.10069545 0.02353771 0.022349713 -0.12268157 -0.09708912
0.074327946 0.17124589 0.022863906 0.04496336 0.011403312 -0.009223622 -0.17173742 0.17097844
0.020899609 -0.02582077 0.2491114 0.0003673021 0.0865346 0.05761286 0.015270712 -0.095453046
0.102751724 0.10676295 0.04821955 0.018879682 0.050100435 -0.008918447 0.07967501 0.08326473
-0.10359142 -0.048574552 -0.07626527 -0.0884509 -0.20252682 -0.00048147314 0.0016386585 0.061095722
-0.0141125275 -0.37156 -0.21491538 -0.03340371 -0.29776376 -0.028725214 -0.003157792 0.025465414
0.11642437 0.050282467 0.05261331 0.0006735045 -0.005338315 0.041907113 0.02075737 0.19180681
0.062485654 0.13490617 -0.13165924 -0.04712196 0.27344087 -0.017323859 0.030187625 -0.056610376
-0.069710344 0.017326249 -0.039461136 -0.057421092 0.0010847924 -0.073126994 0.057355966 -0.05504529
0.005454655 -0.019120948 0.12580055 0.030619062 0.13976566 0.04606698 0.16282442 0.029806148
0.07730238 0.0044389665 0.019529922 0.018423159 0.1394311 0.028039452 -0.02118117 -0.015634336
-0.023579415 -0.468012 0.11683964 0.06019858 -0.1468905 0.069185935 0.037018433 0.15330732
-0.08954097 -0.13951159 0.10392679 0.055992734 0.053580333 0.042601865 -0.024501728 -0.05317791
0.015280468 0.18400097 -0.025540493 -0.0011300412 0.010433405 -0.030065404 0.020327337 0.06833317
0.03256186 0.020659033 0.11853142 -0.121392585 0.017207365 -0.004254087 0.062208477 -0.043132745
0.008821394 0.012073038 0.03939387 -0.072801895 -0.03907159 -0.020013109 -0.043136153 0.117934085
0.10761401 0.08161001 0.09683368 -0.08104232 0.10715365 -0.046722215 -0.04653257 0.009390653
-0.02344533 0.029423889 -0.05800354 -0.03125446 -0.17710692 0.17361744 -0.032766823 -0.025723303
0.01687838 -0.032396708 -0.040911987 -0.28592607 -0.0152426595 -0.017670324 0.36768064 -0.076211445
0.042321566 0.0041163964 0.102270804 0.01810388 0.100125685 0.0045366813 -0.018428236 -0.14445305
0.0803892 -0.07586126 0.14270355 -0.036556315 0.033396374 0.059050996 -0.15618336 0.046699554
-0.048495363 -0.12821114 -0.0056171194 -0.105884016 -0.056377236 -0.04408427 -0.04327115 -0.05763889
-0.10299708 0.106572576 -0.05442263 0.14765361 -0.04982258 0.12744096 0.2996723 0.10526798
-0.04473154 0.120055646 0.06438226 0.057700973 -0.00030362472 -0.037488904 0.052679867 -0.011205976
0.22908199 -0.063665636 -0.03514311 -0.06995164 0.11547083 0.057128854 -0.0074744313 -0.024748722
-0.23942755 0.015164244 0.058924217 0.06166743 0.00427433 0.03273872 -0.15655671 -0.047122207
0.15157846 0.14981295 0.05694052 0.04580762 -0.06861407 0.08220949 -0.23589198 0.26053062
0.012900967 -0.07249073 0.06156315 -0.017060818 -0.03541979 -0.023647055 -0.05178959 -0.005848248
0.13302295 0.1893483 0.08732501 -0.08641202 0.12967478 -0.059679728 0.09534041 0.30701995
0.06731532 0.023200892 -0.08170245 -0.11579136 -0.08153011 -0.021932093 0.2195714 0.036599025
00000000: 88f6 843d 36dd 983d fdd1 2e3c d47b 68bd
00000010: 9f34 67bb df71 aebd fe25 c43d a2b9 c9bd
00000020: 3d18 9d3e ed9f 0cbd e367 863d ebb5 ddbd
00000030: 6683 433e 3e40 d9bc b8dd 26bd 34e8 a63b
00000040: 8315 6abe f49d 8b3c b17a 30bd 6b39 ce3d
00000050: 28d2 c03c bf16 b73c 7a40 fbbd a9d6 c6bd
00000060: 4039 983d 155b 2f3e 164d bb3c 802b 383d
00000070: f5d4 3a3c ad1e 17bc efdb 2fbe f914 2f3e
00000080: a835 ab3c 1486 d3bc 0f17 7f3e 7492 c039
00000090: 0d39 b13d 76fb 6b3d 0232 7a3c e37c c3bd
000000a0: 7f6f d23d 89a6 da3d dd81 453d 90a9 9a3c
000000b0: 1d36 4d3d ae1e 12bc a72c a33d b386 aa3d
000000c0: bd27 d4bd 1cf6 46bd f730 9cbd bf25 b5bd
000000d0: 3163 4fbe 3b6e fcb9 41c8 d63a 823f 7a3d
000000e0: 3b38 67bc 1d3d bebe c712 5cbe 54d2 08bd
000000f0: 7e74 98be 2451 ebbc f5f2 4ebb d89c d03c
00000100: e66f ee3d fdf4 4d3d 0e81 573d 1f8e 303a
00000110: 08ed aebb cba6 2b3d 5c0b aa3c 0169 443e
00000120: f5f0 7f3d d824 0a3e aed1 06be f502 41bd
00000130: 7100 8c3e c4ea 8dbc 0a4c f73c 48e0 67bd
00000140: 4cc4 8ebd c7ef 8d3c 00a2 21bd 6132 6bbd
00000150: 982f 8e3a 9bc3 95bd 17ee 6a3d 2c77 61bd
00000160: f6bc b23b 89a3 9cbc dcd1 003e d4d4 fa3c
00000170: bb1e 0f3e bbb0 3c3d 72bb 263e 062c f43c
00000180: b650 9e3d c074 913b 37fd 9f3c 2aec 963c
00000190: 07c7 0e3e feb2 e53c 2284 adbc 9413 80bc
000001a0: 9e29 c1bc 459f efbe 9f49 ef3d c992 763d
000001b0: 776a 16be 5bb1 8d3d a4a0 173d 98fc 1c3e
000001c0: 4261 b7bd 20dc 0ebe 92d7 d43d a358 653d
000001d0: 0d77 5b3d 4b7f 2e3d d9b7 c8bc 15d1 59bd
000001e0: ee5a 7a3c c06a 3c3e 4c3a d1bc e41d 94ba
000001f0: dff0 2a3c b94b f6bc 8485 a63c 43f2 8b3d
00000200: 965f 053d 223d a93c 9ac0 f23d ad9c f8bd
00000210: 76f6 8c3c de65 8bbb 51ce 7e3d f6ab 30bd
00000220: 9c87 103c fecd 453c 775b 213d 2919 95bd
00000230: 8809 20bd 88f2 a3bc 89af 30bd 6d87 f13d
00000240: bc64 dc3d 2623 a73d bd50 c63d 84f9 a5bd
00000250: 5f73 db3d cb5f 3fbd f098 3ebd 41db 193c
00000260: 6c10 c0bc 5e0a f13c 1f95 6dbd ad04 00bd
00000270: 845b 35be c5c8 313e 8136 06bd adb9 d2bc
00000280: 8744 8a3c 69b2 04bd 5493 27bd e764 92be
00000290: 59bc 79bc 5bc1 90bc a340 bc3e bf14 9cbd
000002a0: 6159 2d3d d6e2 863b 5b73 d13d 974e 943c
000002b0: b20e cd3d 71a8 943b d0f6 96bc 80eb 13be
000002c0: 18a3 a43d 265d 9bbd e120 123e 13bc 15bd
000002d0: a3ca 083d 75df 713d 88ee 1fbe 0848 3f3d
000002e0: 13a3 46bd c849 03be d00f b8bb b8d9 d8bd
000002f0: d1eb 66bd b591 34bd 173d 31bd c216 6cbd
00000300: 22f0 d2bd b942 da3d 44ea 5ebd 8232 173e
00000310: c312 4cbd e27f 023e a66e 993e bd96 d73d
00000320: 6b38 37bd bcdf f53d d9da 833d db57 6c3d
00000330: d22f 9fb9 f78d 19bd d8c6 573d 4599 37bc
00000340: 7894 6a3e 2163 82bd 39f2 0fbd ce42 8fbd
00000350: f87b ec3d f2ff 693d 13ec f4bb d5bd cabc
00000360: 7f2c 75be 7373 783c 855a 713d fd96 7c3d
00000370: ae0f 8c3b 0919 063d 6750 20be 3703 41bd
00000380: 6237 1b3e 9168 193e 763a 693d c5a0 3b3d
00000390: 8985 8cbd 735d a83d ab8d 71be 4564 853e
000003a0: 945e 533c 0576 94bd a429 7c3d 21c3 8bbc
000003b0: 5714 11bd 78b7 c1bc 5221 54bd a9a2 bfbb
000003c0: 2b37 083e 85e4 413e 74d7 b23d c9f8 b0bd
000003d0: 77c9 043e bb72 74bd d541 c33d b831 9d3e
000003e0: 9ddc 893d cc0f be3c 9d53 a7bd 0524 edbd
000003f0: 42f9 a6bd efaa b3bc 53d7 603e dce8 153d

lstm.weight_hh_l0 f4 [800, 200]
-0.017945642 -0.0087553095 0.046366777 0.041519772 0.027069062 0.06384306 0.016883055 -0.00011894195
0.05795954 -0.062931076 0.01978608 0.029576432 0.008044136 0.041530594 0.024267983 -0.017835261
0.02216254 0.0011865601 -0.015581987 -0.046087455 -0.026352668 -0.030710328 0.0002650247 -0.0010032746
-0.017996263 0.05227352 -0.049503583 0.057491213 -0.0362195 -0.027761165 -0.05682494 -0.091255166
-0.055719063 -0.024726614 0.029939037 0.039778896 -0.058234733 0.06714947 -0.0043077045 0.04990663
-0.0019473538 -0.030590564 0.05983511 -0.014338034 0.0029807726 0.025540259 0.02037497 -0.013618276
-0.033592634 0.0604539 0.09407898 -0.029423196 0.068353906 -0.009762621 0.08234794 0.023422375
-0.0051201074 0.055366542 -0.014869116 0.00024207862 -0.064244285 0.056788314 0.047063485 0.04331971
0.030200155 -0.07720328 -0.025687948 -0.023668826 0.033822216 -0.03292329 0.049503997 0.0032837535
-0.040541578 0.020894589 -0.074458875 0.05985896 -0.024091277 0.06419658 -0.04698512 0.048822206
0.051222 0.030233318 -0.020658294 -0.011379309 0.06546844 -0.006964247 -0.051604286 0.02833959
0.0775224 0.016920192 0.0491007 0.056046963 0.0745427 -0.0038320695 -0.049834196 -0.07337036
-0.084651634 0.06531843 0.006085379 -0.04924181 0.084069036 -0.01720048 -0.0049245544 0.058431163
-0.045910366 0.02831398 0.011471853 0.02333389 0.044810556 -0.007913454 -0.053576436 -0.005290301
0.077346005 0.02649845 -0.03376103 -0.08237246 -0.02457859 -0.0011264199 0.05802708 0.029348597
0.05358083 -0.033396572 -0.022152256 -0.04077147 -0.023605503 0.05974482 -0.01962254 0.03214705
0.033581425 0.026952708 -0.046090584 -0.0664308 0.035031598 0.0046511 -0.07300441 0.023129903
0.0058910195 -0.04092724 -0.056105122 -0.039397366 -0.01081578 0.057854995 0.0033863161 -0.058091193
0.02871261 -0.033194195 -0.038878046 -0.060366567 0.033335783 0.051400404 -0.028670302 -0.04383016
-0.028631715 0.009876577 0.06131493 -0.0024020793 -0.030881163 0.0056474833 -0.0077849566 0.0727087
0.044926893 -0.026122896 0.02141702 0.023604574 -0.0111267865 0.011234206 -0.089063846 -0.042457677
-0.06577219 0.06910965 -0.040539864 0.024679855 0.0543153 -0.012660145 -0.051890675 -0.04971592
-0.011793979 -0.055396974 0.048439424 0.008324895 -0.023153275 0.06044304 -0.019097015 -0.05585177
0.055105064 0.025263399 0.016752971 -0.038399436 -0.047159817 0.004075505 -0.04303037 0.052820574
0.043824676 0.06410255 -0.046098612 0.042723216 0.004398247 -0.000373902 -0.0396235 -0.051131282
-0.02545899 0.0314264 -0.044440567 -0.0014566728 -0.03906686 -0.07469906 -0.04905811 -0.07270343
-0.051069763 0.045752667 -0.0036115523 -0.03154143 -0.057227086 -0.034271665 -0.06681073 -0.051401418
-0.052886948 0.045680914 0.022417232 -0.012151331 0.005048659 -0.01251675 0.06540608 -0.06553094
-0.011491009 -0.07335181 0.038607586 -0.020300055 -0.037380524 -0.0656274 0.0076160636 -0.0094017545
0.054420933 0.070546255 -0.008089896 -0.0055850972 -0.08615361 0.060558807 0.0674464 -0.015818838
-0.047518536 -0.045532063 0.009977232 0.03518942 -0.051195692 0.023219313 0.060875356 0.0164036
0.041308995 -0.05079989 -0.02802748 -0.009393281 0.0036246344 0.04160112 0.06130497 -0.007653915
00000000: bd02 93bc 6e72 0fbc 17eb 3d3d a310 2a3d
00000010: f0bf dd3c 26c0 823d 554e 8a3c 7970 f9b8
00000020: fc66 6d3d 02e2 80bd 6b16 a23c 464a f23c
00000030: 8dcb 033c fc1b 2a3d a6cd c63c 411b 92bc
00000040: 378e b53c 5a86 9b3a 974b 7fbc 33c6 3cbd
00000050: 8de1 d7bc 3a94 fbbc 03f3 8a39 4f80 83ba
00000060: e66c 93bc c21c 563d 45c4 4abd e87b 6b3d
00000070: e65a 14bd 626b e3bc 45c1 68bd fde3 babd
00000080: ac39 64bd 788f cabc b642 f53c 32ef 223d
00000090: 8b87 6ebd a985 893d a527 8dbb e56a 4c3d
000000a0: 5a3e ffba 1099 fabc a915 753d 13ea 6abc
000000b0: 1159 433b ce39 d13c 69e9 a63c 311f 5fbc
000000c0: 6e98 09bd 829e 773d 7bac c03d ea08 f1bc
000000d0: 22fd 8b3d 66f3 1fbc 09a6 a83d 48e0 bf3c
000000e0: 93c6 a7bb 07c8 623d 989d 73bc 7cd6 7d39
000000f0: 8292 83bd dd9a 683d a4c5 403d 0270 313d
00000100: 5166 f73c c11c 9ebd 886f d2bc 20e5 c1bc
00000110: 2a89 0a3d 92da 06bd b4c4 4a3d 3e34 573b
00000120: ed0e 26bd 212b ab3c e57d 98bd ab2e 753d
00000130: 125b c5bc 7f79 833d 7873 40bd cbf9 473d
00000140: 29ce 513d ddab f73c 953b a9bc 4870 3abc
00000150: 5114 863d 5734 e4bb 045f 53bd 6e28 e83c
00000160: 10c4 9e3d 379c 8a3c d11d 493d 8091 653d
00000170: d8a9 983d 7523 7bbb f11e 4cbd 3343 96bd
00000180: d65d adbd abc5 853d dc67 c73b c8b1 49bd
00000190: 632c ac3d 05e8 8cbc 285e a1bb 8455 6f3d
000001a0: 820c 3cbd b8f2 e73c 70f4 3b3c b726 bf3c
000001b0: 468b 373d 6fa7 01bc f772 5bbd 435a adbb
000001c0: 9567 9e3d 4713 d93c 0149 0abd e4b2 a8bd
000001d0: 0a59 c9bc 61a4 93ba cead 6d3d 786c f03c
000001e0: 9377 5b3d d8ca 08bd a678 b5bc fcff 26bd
000001f0: 5460 c1bc fcb6 743d 73bf a0bc a0ac 033d
00000200: ad8c 093d edcb dc3c 7bc9 3cbd df0c 88bd
00000210: 4b7d 0f3d 4168 983b 5683 95bd ec7a bd3c
00000220: 7409 c13b 52a3 27bd 7cce 65bd 225f 21bd
00000230: ab34 31bc 5cf9 6c3d f5ec 5d3b 08f1 6dbd
00000240: b536 eb3c a3f6 07bd 963e 1fbd ef42 77bd
00000250: 1a8b 083d 3b89 523d fbdd eabc 4187 33bd
00000260: 0f8d eabc 5ed1 213c 5d25 7b3d 346c 1dbb
00000270: 7efa fcbc 860e b93b f318 ffbb 4de8 943d
00000280: 4305 383d afff d5bc bf72 af3c 615e c13c
00000290: 204d 36bc ad0f 383c 1b67 b6bd 1ae8 2dbd
000002a0: 92b3 86bd 5c89 8d3d 210d 26bd 682d ca3c
000002b0: b879 5e3d 7f6c 4fbc 518b 54bd eca2 4bbd
000002c0: 893b 41bc f0e7 62bd 6b68 463d 2465 083c
000002d0: f0ab bdbc 1f93 773d 5871 9cbc d3c4 64bd
000002e0: d9b5 613d 30f5 ce3c 873d 893c ba48 1dbd
000002f0: a72a 41bd d08b 853b 9d40 30bd 635a 583d
00000300: 8181 333d 3348 833d e6d1 3cbd 8afe 2e3d
00000310: 2c1f 903b 4708 c4b9 404c 22bd 096f 51bd
00000320: 5f8f d0bc f8b8 003d 5007 36bd d4ed beba
00000330: 9204 20bd d2fb 98bd 28f1 48bd 89e5 94bd
00000340: 872e 51bd 2667 3b3d cbaf 6cbb 9631 01bd
00000350: f366 6abd 7260 0cbd 10d4 88bd 4b8a 52bd
00000360: fc9f 58bd e91b 3b3d 58a4 b73c 6016 47bc
00000370: 396f a53b 0e13 4dbc 9ff3 853d 1635 86bd
00000380: c944 3cbc 7939 96bd fd22 1e3d 4d4c a6bc
00000390: 521c 19bd a967 86bd 2c90 f93b d109 1abc
000003a0: 7ce8 5e3d 8e7a 903d 7c8b 04bc 3103 b7bb
000003b0: 4e71 b0bd 830c 783d 5721 8a3d 8296 81bc
000003c0: cca2 42bd d47f 3abd 8b77 233c c822 103d
000003d0: 93b2 51bd 6e36 be3c 7058 793d d860 863c
000003e0: 9f33 293d 8c13 50bd e399 e5bc 47e6 19bc
000003f0: 468b 6d3b f065 2a3d ec1a 7b3d b1cd fabb

lstm.bias_ih_l0 f4 [800]
-0.044129267 0.048405092 -0.0104467245 0.040947106 -0.0039303936 -0.01667235 0.08599815 -0.006538067
0.019253705 0.029442875 0.05382602 0.0042029647 0.14585969 0.0862739 -0.03015164 -0.07133998
-0.046589058 0.058598556 0.021584865 0.09087661 0.067180976 0.012365726 0.024357228 0.069932565
-0.04630974 -0.033110887 0.06775141 -0.05227101 0.03181986 0.004294306 0.054774676 0.015023477
-0.07276894 -0.011879943 0.0094011165 0.07567201 0.044869963 -0.027772656 0.020776723 -0.053687073
-0.057681434 -0.009192066 0.06077414 0.010340392 0.05252713 0.05236926 -0.03319803 0.0881514
-0.03869861 0.05836831 0.05277248 -0.057944603 0.024736349 0.019582015 0.045475904 -0.051163618
-0.01880307 -0.015812745 0.046282582 -0.0062294165 -0.02708608 0.05247954 0.035365 0.06428092
0.11790854 0.0627534 -0.02952212 0.02411502 -0.015477982 0.014344675 -0.010227203 0.15427844
0.027712218 -0.010620963 -0.00036664246 0.09052035 0.05341593 -0.041404564 -0.011325763 0.029068664
-0.0064796177 -0.012525384 -0.01702504 0.044623055 0.008298543 0.009265196 0.019437216 -0.03359591
0.09274872 -0.064199865 0.071147315 0.0004742368 -0.025890894 0.051731147 0.07792 -0.01562501
-0.009689954 -0.011009129 -0.06205717 -0.06727314 0.12484915 -0.071818426 -0.05538844 -0.024795806
0.06345805 -0.035009786 0.19358031 0.049069297 0.0952112 -0.015341017 -0.008410951 0.039847214
0.061718762 0.036910884 0.066161625 -0.008224387 0.057088513 0.0597478 -0.0066931546 -0.06709804
-0.05238629 0.11999158 0.03629994 -0.01804195 -0.06651394 0.012539225 0.024825634 -0.05644768
-0.038848054 0.01643932 0.042790838 -0.039689068 -0.036537517 0.05636794 0.08957801 -0.043967724
-0.05124723 -0.03285446 -0.03997376 -0.05395821 -0.0025745763 0.05514394 0.055196937 -0.053763654
-0.027077109 0.10302107 -0.024637377 0.060117915 -0.00362818 0.012163344 -0.058521453 0.05639011
0.0006254709 -0.042014394 -0.02838642 -0.009859174 -0.00025185273 -0.028077414 0.0344424 0.0056191
0.012921423 0.066341385 -0.020081054 0.09702905 -0.0048037977 0.015579865 0.21639355 0.07207974
0.077158995 0.021254007 0.01431499 0.030598594 0.08434548 -0.05880387 0.08712209 0.040595964
0.026324106 0.019783275 -0.0695842 0.066780455 0.0092523 0.06474101 -0.019326895 0.0032487286
0.0035807448 0.044871446 -0.012031332 0.027143717 -0.010955888 -0.02370124 -0.02010955 0.019779067
0.026546659 -0.04959788 -0.008850469 -0.0060857986 0.026159164 -0.02019205 0.21664526 -0.0203051
0.011053638 -0.03647563 -0.046570286 0.03592999 0.057442915 -0.026870606 0.04575287 0.06776972
-0.020644456 -0.005214239 0.03926147 0.06169546 0.07476801 -0.0066208728 0.016941177 0.018168613
0.026321579 0.037627783 0.066181436 0.04326473 0.02907456 0.022296036 0.022758488 -0.035412055
0.034826387 0.071618155 0.07800185 0.066896826 -0.029379746 0.0084635075 0.09098717 -0.022859741
0.020145597 0.03780081 -0.042437684 0.09372173 0.008610262 -0.049253356 0.07639203 0.03361237
0.059787173 0.11185967 -0.022659983 -0.0008048891 0.046675984 -0.0113426605 -0.020966535 0.07962511
0.093425035 -0.047844168 -0.046832602 0.049949374 0.062438056 -0.0006452932 0.06916526 0.06551746
00000000: e4c0 34bd 6b44 463d bd28 2bbc 27b8 273d
00000010: 88ca 80bb 7494 88bc cc1f b03d 483d d6bb
00000020: f2b9 9d3c 2f32 f13c ac78 5c3d 06b9 893b
00000030: 3e5c 153e 5fb0 b03d 9200 f7bc b21a 92bd
00000040: 2bd4 3ebd 0a05 703d bed2 b03c 841d ba3d
00000050: 2e96 893d 9d99 4a3c cf88 c73c ce38 8f3d
00000060: 48af 3dbd 489f 07bd 40c1 8a3d 201a 56bd
00000070: 8b55 023d 40b7 8c3b 695b 603d 0825 763c
00000080: e207 95bd 18a4 42bc 2407 1a3c edf9 9a3d
00000090: 91c9 373d 7b83 e3bc f233 aa3c fae6 5bbd
000000a0: 5e43 6cbd 529a 16bc 4eee 783d bf6a 293c
000000b0: b026 573d 2681 563d a8fa 07bd b988 b43d
000000c0: 6f82 1ebd 9c13 6f3d f527 583d 5257 6dbd
000000d0: e2a3 ca3c 766a a03c f144 3a3d f190 51bd
000000e0: e508 9abc bb89 81bc ce92 3d3d 2220 ccbb
000000f0: a0e3 ddbc c9f4 563d e4da 103d b7a5 833d
00000100: 087a f13d db84 803d 5fd8 f1bc dd8c c53c
00000110: 5d97 7dbc ed05 6b3c 0090 27bc 2bfb 1d3e
00000120: bc04 e33c 8c03 2ebc eb39 c0b9 bc62 b93d
00000130: aaca 5a3d d597 29bd b18f 39bc 6821 ee3c
00000140: f952 d4bb 4537 4dbc 1978 8bbc aac6 363d
00000150: 9df6 073c 0ccd 173c cc3a 9f3c dd9b 09bd
00000160: 0af3 bd3d 387b 83bd afb5 913d fca2 f839
00000170: 2419 d4bc 0ae4 533d 8594 9f3d 0500 80bc
00000180: 9dc2 1ebc a25f 34bc a92f 7ebd 80c6 89bd
00000190: e9b0 ff3d 8a15 93bd fdde 62bd 9320 cbbc
000001a0: 4bf6 813d 6c66 0fbd eb39 463e e3fc 483d
000001b0: 17fe c23d e458 7bbc 16ce 09bc d536 233d
000001c0: d0cc 7c3d de2f 173d bf7f 873d 94bf 06bc
000001d0: a5d5 693d 1cba 743d 4052 dbbb b26a 89bd
000001e0: 0293 56bd 25be f53d 3faf 143d b6cc 93bc
000001f0: 7638 88bd 5271 4d3c 215f cb3c af35 67bd
00000200: 231f 1fbd c1ab 863c 7245 2f3d 0191 22bd
00000210: 5da8 15bd 12e2 663d ad74 b73d 8017 34bd
00000220: 9ee8 51bd 6692 06bd 86bb 23bd 4903 5dbd
00000230: 39ba 28bb 9dde 613d 2f16 623d 4737 5cbd
00000240: d0d0 ddbc b6fc d23d 53d4 c9bc 343e 763d
00000250: c2c6 6dbb c348 473c 31b4 6fbd 51f9 663d
00000260: a4f6 233a 4917 2cbd a38a e8bc 5f88 21bc
00000270: 1a0b 84b9 9b02 e6bc 7913 0d3d 6d20 b83b
00000280: 60b4 533c fedd 873d 0681 a4bc 2bb7 c63d
00000290: 2d69 9dbb b142 7f3c 4596 5d3e 8b9e 933d
000002a0: 8905 9e3d e21c ae3c 6b89 6a3c e7a9 fa3c
000002b0: 53bd ac3d 54dc 70bd 116d b23d f447 263d
000002c0: a7a5 d73c 8910 a23c 2982 8ebd 31c4 883d
000002d0: f596 173c ef96 843d 7053 9ebc 9fe8 543b
000002e0: eeaa 6a3b 1fcb 373d 101f 45bc 805c de3c
000002f0: 5380 33bc 1a29 c2bc c8bc a4bc b607 a23c
00000300: 6178 d93c 2627 4bbd 8f01 11bc 616b c7bb
00000310: be4b d63c cc69 a5bc 41d8 5d3e e256 a6bc
00000320: 511a 353c 7867 15bd 7cc0 3ebd 532b 133d
00000330: 4349 6b3d bf1f dcbc 5d67 3b3d daca 8a3d
00000340: 901e a9bc 35dc aabb a3d0 203d 61b4 7c3d
00000350: f81f 993d e8f3 d8bb 39c8 8a3c 58d6 943c
00000360: 5aa0 d73c 971f 1a3d 228a 873d 5c36 313d
00000370: c62d ee3c 2da6 b63c 0270 ba3c 3b0c 11bd
00000380: 1da6 0e3d 8aac 923d 6fbf 9f3d 3401 893d
00000390: cbad f0bc 86aa 0a3c 7b57 ba3d 5a44 bbbc
000003a0: 6108 a53c 06d5 1a3d 23d3 2dbd 2ef1 bf3d
000003b0: 0e12 0d3c e3bd 49bd 6d73 9c3d 20ad 093d
000003c0: 65e3 743d af16 e53d 6ea1 b9bc 31ff 52ba
000003d0: 512f 3f3d 91d6 39bc 03c2 abbc 7d12 a33d
000003e0: a055 bf3d 3ff8 43bd 8bd3 3fbd b797 4c3d
000003f0: 0cbf 7f3d e528 29ba 84a6 8d3d 052e 863d

lstm.bias_hh_l0 f4 [800]
-0.047014818 0.046367913 -0.027284918 -0.030012181 -0.04594402 -0.04305303 0.059066046 -0.04670215
0.076865196 -0.06480503 -0.011989696 0.044397328 0.16605464 -0.016099663 -0.034610245 -0.03205411
-0.02411613 0.028140996 -0.035657737 0.13221826 -0.031398457 1.912007e-05 0.044801634 -0.024450816
0.055441834 0.099588566 0.0075111077 -0.03547322 -0.02658044 -0.062204044 -0.023937663 0.06211595
-0.018798841 -0.0039172126 0.010221431 0.0929797 0.04119366 -0.036319975 0.056348447 -0.022064008
0.00894985 0.05162541 -0.06963124 0.06061135 0.05796562 0.058975313 -0.04509728 0.06022315
-0.026013128 -0.009961918 -0.05021366 0.022786826 0.038319226 0.076429695 0.045739703 -0.07032155
-0.06750049 0.084711954 0.055519827 0.1040645 -0.039128296 0.06139515 -0.0025064426 0.039759126
0.042439435 0.051207904 -0.075741224 -0.04619695 -0.07617533 -0.024520699 0.056898367 0.1319884
-0.0006000577 0.04316937 0.05022161 -0.005566244 0.002211252 -0.063376255 0.03113756 0.020017464
0.03140589 0.03990591 0.035412062 0.053875104 -0.059318084 0.06147211 0.03844321 0.06913199
-0.02932049 0.03897404 0.0016450644 0.083510175 -0.021653177 0.045331758 0.033765137 -0.030502226
0.08152575 0.020527005 0.014706319 -0.03948435 0.15396155 0.06489306 0.033018537 0.034571733
0.030633388 0.05184037 0.21402451 -0.012116564 0.0065559223 -0.0352465 -0.068358146 0.051901624
0.031144137 -0.06581714 0.02759626 0.046477143 0.13152078 -0.052759413 0.023566939 0.035563033
0.0767102 0.07134034 -0.048301846 -0.0066721537 -0.039034545 0.05183297 0.029542018 -0.020989778
0.015222144 -0.026996678 -0.011448074 -0.053646877 -0.037740193 0.0145402355 0.119918525 0.013836494
0.024846481 0.032446977 -0.048093922 -0.073024124 -0.004249153 -0.03857216 0.097998515 0.059464034
0.013017859 0.1707108 0.04597411 0.051958207 -0.051788945 0.02283099 0.061824776 -0.026566137
0.04379601 0.018979724 0.019440152 0.010177227 0.005411074 0.018972814 0.074627586 -0.023199668
-0.060883883 0.08284574 0.05986762 0.05668293 -0.026120707 0.04303658 0.20512556 0.064545
0.022403883 -0.014550607 -0.0045330264 -0.05283134 0.13732417 -0.03787282 0.0093164155 0.012559801
-0.0051688626 0.08345669 -0.04964125 -0.04656476 -0.020937374 -0.05878784 0.07036586 0.09611693
0.014809814 -0.03890427 -0.017088946 -0.03753111 -0.05260252 -0.030778285 0.046776533 0.027081521
0.068382576 0.0035425592 0.015646132 0.057426363 -0.060164765 -0.024321461 0.12818386 0.046583083
-0.058258913 -0.015389379 0.036022153 -0.062991396 0.07306262 -0.011675364 -0.01884699 0.042048745
0.003556474 0.05119372 0.03458364 0.031825975 -0.00886054 0.08353152 -0.037712142 0.005963721
-0.05612134 0.0115601 0.071820654 0.03614663 -0.020958766 0.017974092 0.046752386 -0.010083145
-0.0008160295 0.047346655 0.0085986145 0.015526483 0.020941071 -0.035902243 -0.0027548822 0.0397835
0.046478774 -0.026751585 -0.047022533 0.090142734 0.040504396 0.06570372 -0.008142046 -0.004159517
-0.019039448 0.014380595 -0.01626119 -0.016217174 0.0736109 0.06106536 0.044371 0.043890003
0.098374516 0.008145452 0.014749982 0.043206308 0.019171955 0.024315912 0.06771411 0.009262683
00000000: 9c92 40bd 48ec 3d3d 9f84 dfbc 1bdc f5bc
00000010: cc2f 3cbd 6058 30bd 3def 713d c14a 3fbd
00000020: 806b 9d3d 80b8 84bd 6e70 44bc f9d9 353d
00000030: 3a0a 2a3e 71e3 83bc 79c3 0dbd 2c4b 03bd
00000040: 318f c5bc f287 e63c d90d 12bd 3964 073e
00000050: ab9b 00bd 0a64 a037 eb81 373d 144d c8bc
00000060: fa16 633d 17f5 cb3d bd1f f63b 5e4c 11bd
00000070: 39bf d9bc abc9 7ebd eb18 c4bc 4b6d 7e3d
00000080: 0700 9abc f65b 80bb ca77 273c 246c be3d
00000090: afba 283d 41c4 14bd a1cd 663d 94bf b4bc
000000a0: 64a2 123c 2a75 533d d39a 8ebd 9b43 783d
000000b0: 5c6d 6d3d 1990 713d edb7 38bd 8dac 763d
000000c0: 7c19 d5bc 5037 23bc d7ac 4dbd 70ab ba3c
000000d0: 9ff4 1c3d 2c87 9c3d 8e59 3b3d bf04 90bd
000000e0: b23d 8abd 767d ad3d c268 633d c51f d53d
000000f0: fe44 20bd 7b79 7b3d 2143 24bb 77da 223d
00000100: f9d4 2d3d 61bf 513d 371e 9bbd 0339 3dbd
00000110: d001 9cbd a2df c8bc 430e 693d f827 073e
00000120: 314d 1dba 5ed2 303d 2db5 4d3d 0a65 b6bb
00000130: a7ea 103b 69cb 81bd 3214 ff3c aafb a33c
00000140: 76a3 003d 6174 233d 3d0c 113d 24ac 5c3d
00000150: 85f7 72bd 2eca 7b3d a176 1d3d 1395 8d3d
00000160: 8631 f0bc 3ea3 1f3d 349f d73a 6207 ab3d
00000170: 0162 b1bc cbad 393d 504d 0a3d cedf f9bc
00000180: f9f6 a63d 4028 a83c c6f2 703c 57ba 21bd
00000190: 19a8 1d3e a7e6 843d 723e 073d 179b 0d3d
000001a0: dff2 fa3c 9156 543d 3e29 5b3e 8e84 46bc
000001b0: 10d3 d63b a25e 10bd 5bff 8bbd cc96 543d
000001c0: fd21 ff3c 23cb 86bd 8d11 e23c d15e 3e3d
000001d0: 62ad 063e 411a 58bd 740f c13c 8baa 113d
000001e0: 3d1a 9d3d e21a 923d 28d8 45bd 15a2 dabb
000001f0: b0e2 1fbd cf4e 543d 1a02 f23c c1f2 abbc
00000200: 4d66 793c 2328 ddbc b490 3bbc d4bc 5bbd
00000210: 7695 1abd 2b3a 6e3c d897 f53d 76b2 623c
00000220: d98a cb3c 1fe7 043d 22fe 44bd ac8d 95bd
00000230: 7b3c 8bbb d7fd 1dbd 72b3 c83d 8f90 733d
00000240: dc48 553c d0ce 2e3e 594f 3c3d 21d2 543d
00000250: a520 54bd 0e08 bb3c fa3b 7d3d 3aa1 d9bc
00000260: 7263 333d 5e7b 9b3c f440 9f3c 62be 263c
00000270: 614f b13b e06c 9b3c 59d6 983d 3b0d bebc
00000280: 6161 79bd 07ab a93d c037 753d 5c2c 683d
00000290: 18fb d5bc 2047 303d 6f0c 523e 2b30 843d
000002a0: 5988 b73c ab65 6ebc c889 94bb ad65 58bd
000002b0: b59e 0c3e 8820 1bbd e1a3 183c a0c7 4d3c
000002c0: 905f a9bb 57eb aa3d a054 4bbd b1ba 3ebd
000002d0: db84 abbc 85cb 70bd fa1b 903d f4d8 c43d
000002e0: dda4 723c 155a 1fbd 1efe 8bbc 39ba 19bd
000002f0: bd75 57bd be22 fcbc c098 3f3d 11da dd3c
00000300: 2a0c 8c3d 482a 683b 512c 803c e837 6b3d
00000310: 546f 76bd cd3d c7bc a142 033e e7cd 3e3d
00000320: e6a0 6ebd bc23 7cbc f78b 133d a201 81bd
00000330: dba1 953d 074a 3fbc 0165 9abc 4e3b 2c3d
00000340: bc13 693b 82b0 513d 93a7 0d3d f45b 023d
00000350: cc2b 11bc 9312 ab3d 0c78 1abd 516b c33b
00000360: 7ddf 65bd 9366 3d3c b516 933d 7d0e 143d
00000370: b8b1 abbc 673e 933c 6e7f 3f3d c733 25bc
00000380: d0ea 55ba 91ee 413d 34e1 0c3c ca62 7e3c
00000390: 9c8c ab3c 3b0e 13bd 418b 34bb 06f4 223d
000003a0: 8760 3e3d 2426 dbbc b39a 40bd c19c b83d
000003b0: f0e7 253d ac8f 863d 3766 05bc 8f4c 88bb
000003c0: 9ef8 9bbc 969c 6b3c 3036 85bc e1d9 84bc
000003d0: 50c1 963d ac1f 7a3d 5ebe 353d 01c6 333d
000003e0: 9478 c93d 8074 053c e9a9 713c 19f9 303d
000003f0: 810e 9d3c 2a32 c73c b2ad 8a3d 82c2 173c

lin.weight f4 [72, 200]
0.045965735 -0.050408453 -0.060813118 -0.052154586 -0.006265366 -0.056323808 -0.021969965 0.035887215
0.025827447 -0.044887733 -0.013260933 0.0012705036 -0.026204845 0.061634384 0.0189593 0.033000533
-0.00441648 0.036684584 0.055699624 -0.0053759045 0.0019684185 0.054814205 -0.050931502 -0.078556135
0.028187547 -0.050034247 0.010124461 -0.03716254 0.05394133 0.031075938 -0.052956127 -0.036950123
0.066361524 0.046498694 0.060712107 0.02652309 0.037088614 -0.0523885 -0.018878134 -0.013664436
-0.05309025 0.073948376 -0.022399897 0.026555905 -0.051188417 0.039612632 0.057005335 0.007896023
0.073622376 -0.046800803 0.050012678 -0.02963713 0.07517352 -0.023497375 0.041388664 -0.0684765
0.007721262 -0.041954514 -0.057850894 0.022055032 -0.0005936564 0.0038238883 0.020270295 -0.044321872
0.05792181 0.020746823 -0.008701516 -0.068103254 -0.060320884 -0.05175288 -0.04315914 0.060353696
0.050280742 0.04997851 0.0054827207 0.059993498 -0.0040036724 -0.05584913 -0.014873066 -0.044429563
0.0016352952 0.015777176 -0.069548406 0.07989978 -0.042873994 -0.03900917 0.055423304 -0.06262086
-0.011588394 -0.018661551 -0.062989414 0.0047272784 0.041607752 0.05298871 0.0058109025 -0.021847272
0.011074414 0.05552981 -0.04330129 0.07184247 -0.013010378 0.026301762 -0.025507087 0.040133737
0.03371029 0.044801757 0.040705804 0.03349332 0.019783186 -0.044151116 -0.06653359 0.0388261
-0.041061968 -0.058734566 0.006438834 0.006520252 -0.012394906 -0.017252186 -0.03900657 0.043509312
0.06902395 -0.0220024 0.007610229 0.035528906 0.020377442 -0.036453243 -0.01335902 0.07263378
-0.029449629 0.07294986 -0.037994817 0.038765132 -0.04842078 0.05095858 0.042286314 -0.06837328
0.050599754 -0.04914062 0.008234509 0.028453315 0.02988197 -0.05868612 -0.03598156 -0.03272387
0.06712597 -0.0049947957 -0.003698831 -0.020112297 0.06358934 0.05298453 -0.009038963 0.03706696
-0.046521883 0.022998262 -0.055952996 0.027815731 -0.07404109 -0.022219727 0.07402939 0.022567045
-0.00853041 0.0640918 0.026950467 0.015722275 0.010160981 -0.022864789 0.036461942 0.071648724
0.015833497 0.048315518 -0.026447425 -0.02114718 0.00032062278 0.059441987 -0.07182465 0.005243654
0.063083746 0.054942682 0.015585267 0.063456014 -0.032012433 0.014296158 -0.010135782 0.02999393
0.029870093 0.028902352 0.0018081946 0.055667553 -0.07997372 -0.008529907 0.055039775 0.003045264
-0.014937518 -0.048426256 0.036119465 0.023247369 -0.051262263 0.0353067 0.05245051 0.065935045
0.015530215 -0.020656077 -0.023790864 0.017719977 -0.06781203 0.06644109 0.036970075 0.011297014
0.06084287 0.055877294 -0.06030672 0.043692194 -0.052858707 -0.013103194 -0.010972361 -0.04615093
-0.056881964 -0.0106884595 0.029501716 -0.0544822 0.059712533 -0.021733515 -0.05932338 -0.018413275
0.056857426 0.024888216 0.0549207 0.052049447 -0.038120434 0.030235427 0.048009835 -0.03252114
-0.0024685918 -0.00581406 -0.025545323 -0.07123904 -0.067944005 0.010390473 0.009282341 0.032769527
0.071212694 -0.05806279 -0.0066739786 -0.08225664 -0.054565534 0.010680966 0.09191326 0.120125055
-0.013840265 -0.0037107936 0.048544306 0.0107513135 0.020823207 0.08126364 0.018795187 0.007878674
00000000: 9146 3c3d 1879 4ebd 2d17 79bd 0ca0 55bd
00000010: b34d cdbb cbb3 66bd 5bfa b3bc 79fe 123d
00000020: 1594 d33c 33dc 37bd 6244 59bc 0787 a63a
00000030: 8bab d6bc 5674 7c3d 8950 9b3c 912b 073d
00000040: 1fb8 90bb 9342 163d 4a25 643d 5b28 b0bb
00000050: 9500 013b dc84 603d 8d9d 50bd 0ae2 a0bd
00000060: 92e9 e63c b6f0 4cbd 11e1 253c bf37 18bd
00000070: 96f1 5c3d f792 fe3c 86e8 58bd 0359 17bd
00000080: 8de8 873d 6a75 3e3d 42ad 783d f446 d93c
00000090: 3bea 173d 5395 56bd 51a6 9abc cce0 5fbc
000000a0: 2975 59bd 3f72 973d fd7f b7bc c58b d93c
000000b0: f2aa 51bd db40 223d 6d7e 693d 525e 013c
000000c0: 54c7 963d 33b2 3fbd 18da 4c3d 91c9 f2bc
000000d0: 93f4 993d 917d c0bc 2987 293d 683d 8cbd
000000e0: a402 fd3b 7fd8 2bbd 0ff5 6cbd c1ac b43c
000000f0: 9b9f 1bba 339a 7a3b e40d a63c da8a 35bd
00000100: 6b3f 6d3d 3ef5 a93c ce90 0ebc b879 8bbd
00000110: 0813 77bd d4fa 53bd a3c7 30bd 7035 773d
00000120: 2ef3 4d3d 44b6 4c3d 65a8 b33b bebb 753d
00000130: 3d31 83bb 0fc2 64bd 29ae 73bc c6fb 35bd
00000140: 6757 d63a 233f 813c 656f 8ebd 7fa2 a33d
00000150: a49c 2fbd 14c8 1fbd 8c03 633d 5e3f 80bd
00000160: 3fdd 3dbc 1ce0 98bc 9800 81bd 49e7 9a3b
00000170: e46c 2a3d b10a 593d 6269 be3b 0df9 b2bc
00000180: 7571 353c 3a73 633d b25c 31bd 2522 933d
00000190: 7b29 55bc cb76 d73c 3df4 d0bc 4663 243d
000001a0: cd13 0a3d 0c82 373d 21bb 263d 4b30 093d
000001b0: 5910 a23c cdd7 34bd c342 88bd 1e08 1f3d
000001c0: 9830 28bd a893 70bd dbfc d23b d7a7 d53b
000001d0: 0114 4bbc 7554 8dbc 5ac5 1fbd d236 323d
000001e0: 6e5c 8d3d 613e b4bc 3a5f f93b c286 113d
000001f0: 98ee a63c ff4f 15bd cbdf 5abc 05c1 943d
00000200: 5940 f1bc bc66 953d 74a0 1bbd 30c8 1e3d
00000210: de54 46bd f2b9 503d 6a34 2d3d 4a07 8cbd
00000220: b041 4f3d ad47 49bd 09ea 063c ed16 e93c
00000230: 08cb f43c db60 70bd 6661 13bd 7709 06bd
00000240: 5779 893d 62ab a3bb 1668 72bb 8bc2 a4bc
00000250: 213b 823d 4e06 593d 2918 14bc 86d3 173d
00000260: bb8d 3ebd da66 bc3c f82e 65bd d1dd e33c
00000270: dba2 97bd 2506 b6bc b99c 973d 86de b83c
00000280: 22c3 0bbc 9042 833d 3ac7 dc3c 00cc 803c
00000290: 3e7a 263c f04e bbbc 1e59 153d 91bc 923d
000002a0: 40b5 813c 7ee6 453d 45a8 d8bc da3c adbc
000002b0: 4319 a839 7179 733d cd18 93bd f5d2 ab3b
000002c0: 0d32 813d 940b 613d 5959 7f3c 3af5 813d
000002d0: 781f 03bd 6f3a 6a3c 8d10 26bc d5b5 f53c
000002e0: 20b2 f43c a0c4 ec3c f100 ed3a a903 643d
000002f0: 43c9 a3bd 06c1 0bbc 6371 613d 0d93 473b
00000300: 7ebc 74bc 9c5a 46bd 01f2 133d 4471 be3c
00000310: 61f8 51bd c29d 103d 59d6 563d f408 873d
00000320: 7172 7e3c ef36 a9bc 0fe5 c2bc 7c29 913c
00000330: 09e1 8abd 4412 883d ef6d 173d 1c17 393c
00000340: 6036 793d 97df 643d 2e04 77bd 96f6 323d
00000350: 5f82 58bd c7ae 56bc 6bc5 33bc c208 3dbd
00000360: 10fd 68bd a61e 2fbc 95ad f13c ba28 5fbd
00000370: 2195 743d 7c0a b2bc 13fd 72bd 70d7 96bc
00000380: 55e3 683d 5fe2 cb3c 87f4 603d cd31 553d
00000390: 2c24 1cbd 49b0 f73c f6a5 443d e334 05bd
000003a0: 19c8 21bb df83 bebb 6d44 d1bc c6e5 91bd
000003b0: 3a26 8bbd cd3c 2a3c f614 183c 5739 063d
000003c0: f6d7 913d 40d3 6dbd 64b1 dabb 2b76 a8bd
000003d0: 1c80 5fbd 38ff 2e3c 053d bc3d 2004 f63d
000003e0: 47c2 62bc c930 73bb 65d6 463d 4726 303c
000003f0: 6e95 aa3c 8d6d a63d 5df8 993c 8e15 013c

lin.bias f4 [72]
-0.07389423 -0.09323598 0.05910094 -0.07770283 -0.054826107 0.06752962 -0.0783609 -0.060728017
-0.057551898 -0.04071499 -0.038871583 -0.009636211 0.08965433 -0.074881695 -0.048467785 -0.051127106
0.10099647 0.06267254 0.005961713 -0.07787473 0.109122396 0.06882704 0.066345595 -0.05373676
-0.117636465 0.01127469 -0.06444415 -0.07107384 0.016917368 0.012749674 0.051412918 -0.08885255
-0.066187076 0.070415415 -0.05661341 -0.06522723 -0.05523739 -0.0117863035 -0.03342517 -0.0180813
0.10444129 -0.0019771166 0.11047857 0.10977814 0.092146635 0.008322682 0.060610745 -0.055770203
0.06269092 0.009050506 -0.031933095 0.005130462 -0.0030687326 0.041778926 -0.009977564 0.10060887
0.03119469 -0.013842116 0.004317715 -0.067618586 -0.062067803 -0.06626021 0.082370885 0.037133727
0.031106925 0.08906985 -0.07007431 -0.02277811 -0.06570068 0.036738448 -0.06568516 0.1146157
00000000: dc55 97bd 81f2 bebd d413 723d a922 9fbd
00000010: 5791 60bd f84c 8a3d ae7b a0bd f1bd 78bd
00000020: 8abb 6bbd c3c4 26bd cf37 1fbd 33e1 1dbc
00000030: b09c b73d 935b 99bd 2886 46bd a86a 51bd
00000040: 3dd7 ce3d 765a 803d 795a c33b c97c 9fbd
00000050: 907b df3d 31f5 8c3d 33e0 873d 141b 5cbd
00000060: 63eb f0bd 7ab9 383c 4bfb 83bd 298f 91bd
00000070: 4b96 8a3c 02e4 503c 5a96 523d 53f8 b5bd
00000080: 178d 87bd f535 903d 77e3 67bd db95 85bd
00000090: 9a40 62bd 571b 41bc d5e8 08bd 3c1f 94bc
000000a0: 51e5 d53d 8392 01bb 9742 e23d 5dd3 e03d
000000b0: 60b7 bc3d dc5b 083c f942 783d 4c6f 64bd
000000c0: 1964 803d 9348 143c 47cc 02bd 6f1d a83b
000000d0: ca1c 49bb 6120 2b3d f078 23bc 060c ce3d
000000e0: 028c ff3c 0bca 62bc 9e7b 8d3b 9d7b 8abd
000000f0: cf3a 7ebd 6fb3 87bd 11b2 a83d 8919 183d
00000100: f3d3 fe3c 416a b63d 1f83 8fbd 2999 babc
00000110: 148e 86bd 0e7b 163d f185 86bd a3bb ea3d

lin2.weight f4 [24, 72]
0.05786624 -0.004574207 0.029288014 0.015208571 -0.05093093 -0.06777498 0.34532273 -0.070429906
-0.0010706416 -0.075093634 -0.12031072 0.14273326 0.22827624 -0.04457747 -0.17151764 -0.018087095
-0.015744433 0.10931598 0.045645814 0.012671794 0.038766235 -0.14872508 0.025218753 -0.103145376
-0.012665024 0.014061364 -0.05304686 -0.09000216 0.08867248 0.05479021 0.08693923 0.020001091
0.11255733 -0.03990484 -0.09027499 0.04533393 0.0929206 -0.014531076 -0.03768038 0.050778124
0.08578688 0.018720232 0.08659828 0.13602649 -0.014386161 -0.024109738 -0.039000914 -0.10843219
0.056170646 0.16946363 -0.010268453 -0.023931317 0.00025452024 -0.13505802 -0.0048113246 0.0035481532
0.072483644 -0.053602308 0.09383002 0.053609237 0.09084466 -0.013263467 -0.060552355 0.034037538
-0.019584116 0.0039215316 -0.00680565 0.044754766 -0.17516656 -0.07354144 0.0868441 0.111078314
0.08414428 -0.0054490184 0.062615864 0.048083916 0.10524376 0.047811076 0.18943897 0.10346004
-0.13413016 -0.10132629 -0.15514943 0.29699838 0.22888647 0.0737223 0.067510135 0.032660022
0.07658468 0.07114287 -0.109849654 0.09242279 -0.058206923 -0.075381346 -0.0888741 -0.116504684
-0.09263967 0.035811458 -0.04321787 -0.029594973 0.14104666 0.036268495 0.008011109 0.03952925
-0.045520265 0.010699218 0.073968835 0.032185543 0.06663387 -0.03719271 0.09006251 0.21297605
-0.059710067 0.1903962 -0.03884252 -0.0024811202 -0.06492139 -0.037636206 0.0169642 0.03107515
0.020609347 0.105292685 -0.08266142 -0.006372341 0.071953 -0.09391743 -0.014064523 -0.1455218
0.031678487 -0.0009859579 0.056087457 0.102359995 0.09909363 -0.07722712 0.0017024005 0.087555654
-0.1582682 0.08965324 -0.099511206 0.09432111 -0.24954022 -0.011422948 -0.032099392 -0.0022583003
0.0010872617 -0.10173498 -0.0030463065 0.016079683 0.10113971 0.040020082 -0.04208366 -0.026466733
-0.1847282 0.020543942 -0.061405353 0.15725818 0.074752055 0.033433832 0.28877765 -0.08606666
0.14425473 0.042858914 -0.03237074 0.048411064 0.02927404 -0.0029758823 0.00015502099 -0.10907125
-0.09629529 0.029059228 -0.07180019 -0.07206864 0.06671083 -0.009742572 0.053442236 0.023496421
0.06402268 0.07295524 -0.057673384 0.06432486 0.074574545 -0.026793176 -0.008382263 0.18162191
0.07738834 0.22610363 0.026610555 -0.06997731 -0.02186443 0.081377015 0.11463152 0.122560896
0.032115135 0.06910526 -0.10745629 0.04207757 -0.011199824 -0.19718389 -0.074479066 -0.03346953
0.056406837 -0.042524654 0.05975405 0.049380474 0.050793625 -0.097392775 -0.05601119 0.107800536
-0.015705599 -0.04429425 -0.033859838 0.16119865 -0.12251849 -0.040319033 0.10623821 0.027634833
-0.12296859 0.03145226 0.038874768 -0.035138223 -0.104532056 0.15877837 -0.19000551 -0.010592773
-0.19643658 0.09466479 -0.11084194 0.019828418 0.069624044 -0.023226101 0.28625426 -0.11324244
0.09379219 0.025534725 0.09389769 -0.006229766 -0.07243969 -0.04102084 0.0026907176 -0.15154989
-0.071144536 -0.030942162 0.04219217 0.034229245 0.008280289 -0.013652735 0.12189672 0.019836877
-0.053289697 0.08803895 0.079997964 -0.055749796 -0.102676354 -0.068294324 0.031825267 0.013495349
00000000: 2705 6d3d 3be3 95bb 6bed ef3c 5f2d 793c
00000010: f39c 50bd 9ccd 8abd 24ce b03e 8e3d 90bd
00000020: c554 8cba b1ca 99bd 7765 f6bd ab28 123e
00000030: 3fc1 693e dd96 36bd 52a2 2fbe 632b 94bc
00000040: 78fa 80bc 0ee1 df3d 1bf7 3a3d 5b9d 4f3c
00000050: 58c9 1e3d 634b 18be 8f97 ce3c e23d d3bd
00000060: f680 4fbc a361 663c aa47 59bd 0d53 b8bd
00000070: eb99 b53d b36b 603d 320d b23d 54d9 a33c
00000080: 7584 e63d 4273 23bd 18e2 b8bd 12b0 393d
00000090: 284d be3d c013 6ebc be56 1abd b9fc 4f3d
000000a0: 08b1 af3d 2c5b 993c 705a b13d 874a 0b3e
000000b0: efb3 6bbc c981 c5bc 6cbf 1fbd b211 debd
000000c0: 3113 663d e087 2d3e 033d 28bc 9c0b c4bc
000000d0: 2171 8539 a64c 0abe 51a8 9dbb 2288 683b
000000e0: 4e72 943d 188e 5bbd f429 c03d 5c95 5b3d
000000f0: c40c ba3d 034f 59bc bf05 78bd f26a 0b3d
00000100: de6e a0bc 3180 803b ee01 dfbb c650 373d
00000110: dd5e 33be e59c 96bd 52db b13d 077d e33d
00000120: d653 ac3d ae8d b2bb bf3c 803d a4f3 443d
00000130: 0a8a d73d 8cd5 433d 4afc 413e dce2 d33d
00000140: 6b59 09be 2884 cfbd 7edf 1ebe 2c10 983e
00000150: 3761 6a3e b8fb 963d c142 8a3d 84c6 053d
00000160: 6ed8 9c3d 5ab3 913d dbf8 e0bd 2948 bd3d
00000170: 626a 6ebd 8961 9abd a003 b6bd 029a eebd
00000180: deb9 bdbd 09af 123d 3905 31bd 2871 f2bc
00000190: 896e 103e 468e 143d 0741 033c 6ce9 213d
000001a0: 7573 3abd c64b 2f3c f97c 973d fdd4 033d
000001b0: 5777 883d 6257 18bd b172 b83d 6516 5a3e
000001c0: 8b92 74bd 39f7 423e 5619 1fbd 4a9a 22bb
000001d0: 81f5 84bd 6c28 1abd 82f8 8a3c 5091 fe3c
000001e0: efd4 a83c b1a3 d73d 644a a9bd 12cf d0bb
000001f0: 185c 933d c857 c0bd e36e 66bc ab03 15be
00000200: 4dc1 013d 423b 81ba f6bb 653d 1ea2 d13d
00000210: 9af1 ca3d 4129 9ebd 1523 df3a 6150 b33d
00000220: 0f11 22be 1e9c b73d 88cc cbbd 6d2b c13d
00000230: 7987 7fbe 5127 3bbc a77a 03bd feff 13bb
00000240: 7382 8e3a 6e5a d0bd 8ba4 47bb 8ab9 833c
00000250: 5622 cf3d 19ec 233d ea5f 2cbd c3d0 d8bc
00000260: 6429 3dbe c54b a83c 2e84 7bbd 4a08 213e
00000270: 9b17 993d eaf1 083d aada 933e b843 b0bd
00000280: 83b7 133e d48c 2f3d 2e97 04bd ae4a 463d
00000290: 1dd0 ef3c 0507 43bb 218d 2239 bf60 dfbd
000002a0: 7736 c5bd 9e0d ee3c fa0b 93bd b998 93bd
000002b0: b09f 883d 4f9f 1fbc 3fe6 5a3d 917b c03c
000002c0: 531e 833d 8f69 953d ed3a 6cbd c1bc 833d
000002d0: 8aba 983d 5d7d dbbc c255 09bc 18fb 393e
000002e0: c77d 9e3d b687 673e 61fe d93c 4450 8fbd
000002f0: 081d b3bc fea8 a63d eec3 ea3d 3501 fb3d
00000300: 298b 033d 0f87 8d3d 0b12 dcbd 8859 2c3d
00000310: 777f 37bc 93ea 49be 7b88 98bd 5917 09bd
00000320: db0a 673d 552e 2ebd aac0 743d 2e43 4a3d
00000330: fa0c 503d dd75 c7bd fd6b 65bd 87c6 dc3d
00000340: 07a9 80bc e36d 35bd 9db0 0abd 4211 253e
00000350: f9ea fabd 9225 25bd 6b93 d93d 7262 e23c
00000360: f5d6 fbbd 16d4 003d 263b 1f3d 19ed 0fbd
00000370: e714 d6bd cc96 223e ce90 42be 4f8d 2dbc
00000380: ac26 49be 9ddf c13d 1901 e3bd 356f a23c
00000390: 0d97 8e3d aa44 bebc eb8f 923e a7eb e7bd
000003a0: 1f16 c03d 332e d13c 6f4d c03d 1123 ccbb
000003b0: 435b 94bd 7805 28bd c056 303b e52f 1bbe
000003c0: 3ab4 91bd 6b7a fdbc b2d1 2c3d f733 0c3d
000003d0: 0daa 073c b9af 5fbc fda4 f93d f280 a23c
000003e0: 4c46 5abd c44d b43d f9d5 a33d e659 64bd
000003f0: fb47 d2bd e5dd 8bbd 365b 023d 991b 5d3c

lin2.bias f4 [24]
-0.007544534 0.060649022 0.039470114 0.067984395 -0.0065564946 0.06341769 0.04220685 0.0009774982
0.05880732 0.021125348 -0.0011237165 6.616581e-05 -0.047822174 0.047522858 0.026497664 0.04604153
0.030291649 0.058791857 0.0021036235 0.03216208 0.07633448 0.06785378 0.0032394861 -0.04558225
00000000: 2338 f7bb 1c6b 783d 6aab 213d 673b 8b3d
00000010: ddd7 d6bb 22e1 813d 17e1 2c3d 661f 803a
00000020: f2df 703d 110f ad3c ab49 93ba 80c2 8a38
00000030: 2fe1 43bd 54a7 423d a111 d93c 0b96 3c3d
00000040: 3126 f83c bbcf 703d f2dc 093b 63bc 033d
00000050: 4055 9c3d ecf6 8a3d 8f4d 543b 74b4 3abd
