models/model_LSTM_7_days_to_24_hours.pt (torch, 719343 bytes, 8 tensors)

lstm.weight_ih_l0 f4 [800, 1]
000000 ba 3e ff 3d 45 29 0c 3c e2 64 b9 3c 31 e4 0e bd
       0.12463136 0.008554761 0.022631112 -0.03488559
000010 52 28 a8 bd 03 38 ad 3d b0 5b ea 3d 6f 16 3d 3e
       -0.082108155 0.08457949 0.11443269 0.18465589
000020 f3 6b da 3c a5 18 00 3c d8 4e dd 3d 3f e4 be 3d
       0.026662802 0.007818376 0.10806054 0.09320878
000030 6f 68 fd bd 12 2c 36 3d 92 58 7b bb f2 6d 1d bc
       -0.12373435 0.044475622 -0.0038352353 -0.009608733
000040 cd 1c fb bb 93 4a ea 3d 65 a2 7e bd 0f b1 92 3d
       -0.0076633454 0.11440005 -0.06216659 0.071626775
000050 d8 ce 32 3d 7a e5 6c 3d 18 b6 e0 3d aa b5 db bd
       0.043654293 0.057836033 0.109722316 -0.10728009
000060 29 37 42 3d 34 5e 85 bc 16 06 28 3e 80 ed 14 be
       0.047415886 -0.016280271 0.16408572 -0.14543724
000070 f2 c1 5f 3a 5c 56 c1 3d 80 f2 16 be 6a ff 4f 3d
       0.0008535675 0.094403 -0.14740944 0.05078069
000080 5b ca 18 3d 48 4e c0 3c 88 11 06 3d d1 70 b9 3d
       0.037302356 0.023474827 0.032731563 0.09054721
000090 9b dd 75 3d fe 64 fa 3e 0a 7d 0e bd f6 9e 95 bd
       0.060025793 0.48905176 -0.034787215 -0.0730571
0000a0 3f dc 15 bd 4d 54 04 3e 1c d7 33 bd 0a 2f 56 3c
       -0.036586996 0.12922783 -0.043906316 0.013072738
0000b0 d7 0b 50 bd e7 2d 01 3e 25 09 b8 bd 70 0b 12 3d
       -0.05079254 0.12615167 -0.08986119 0.03565544
0000c0 b1 a9 4e be 32 28 eb bc 48 44 9f bd c5 35 55 bd
       -0.2018192 -0.02870569 -0.077766955 -0.05205323
0000d0 de 23 df 3c 79 75 9f 3d 32 66 0c be 52 06 40 3d
       0.027238782 0.07786078 -0.1371086 0.046881028
0000e0 db 75 42 be ce ec e6 bc ca 53 5c bd e0 32 98 bb
       -0.18990271 -0.02818909 -0.053790845 -0.0046447366
0000f0 ec 9a 58 3d 29 ec 9b 3d b0 9c 95 3c 5e 8f 7f bc
       0.05288212 0.07613403 0.018263191 -0.015598146
000100 d1 89 99 3b c4 ad 80 bd 7c 53 15 bd eb 16 a2 3d
       0.0046856184 -0.06283143 -0.03645657 0.079145275
000110 37 b5 91 bc d9 56 f2 3d 91 b9 e8 3d c2 1f 1b bd
       -0.017786605 0.11832971 0.11363519 -0.037872083
000120 b9 9d 2a 3d a2 1d c2 3d 1c 54 13 be 4f 01 db 3d
       0.041654322 0.09478308 -0.14387554 0.10693609
000130 7c b1 8a bd c9 b5 53 bd 8b 4b b1 3b 71 10 ea bc
       -0.06772134 -0.051687036 0.0054106168 -0.028572293
000140 46 6b 22 3e 6a c6 8f bd 40 f5 c3 bb f4 83 0e 3d
       0.15861234 -0.07020266 -0.005980164 0.03479381
000150 f9 35 55 bd aa 1a 7c 3c 57 79 96 bc f2 1f 29 3e
       -0.052053425 0.015387217 -0.018368406 0.16516092
000160 e2 0b 89 3d 93 f6 fa 3c 40 55 0a 3e f7 ae eb 3d
       0.066917196 0.030635154 0.13509083 0.11507981
000170 20 cf 87 bd b6 f9 ad 3d 2c e2 1b 3e b1 ad 72 3e
       -0.06631303 0.08494894 0.15222996 0.2369907
000180 47 c8 36 3c d5 cf c9 3d 0e 0b 47 3e ec 7c 7a 3c
       0.011156148 0.09854094 0.19437811 0.015288573
000190 66 55 3d 3d 76 c1 76 bd d7 d0 25 bc 3d f8 5d 3d
       0.04622402 -0.060243092 -0.010120592 0.054191817
0001a0 ac 41 17 3e 67 39 6b bd b3 95 1a 3d ef 1f a0 bc
       0.14771146 -0.05742779 0.03774042 -0.019546477
0001b0 bf 5a f1 bc 43 ac 32 3e a3 ab 1b bd 07 69 9a bd
       -0.029462216 0.17448525 -0.038005482 -0.075395636
0001c0 c5 9d e2 3e 58 5e 24 ba 05 90 2f 3c 67 71 2f be
       0.44260994 -0.0006270162 0.010715489 -0.17133103
0001d0 d2 80 95 3d 66 57 8d 3d 23 04 f2 3c d4 14 30 bd
       0.07299961 0.069014356 0.029542988 -0.042988613
0001e0 0e 68 4f 3e 9a 96 71 3d dc 67 53 bd da a0 d5 bc
       0.20254537 0.058981515 -0.05161272 -0.026077677
0001f0 bf 9a b5 bd ec 88 e3 bb 0a 4b 92 bd 6d 4c 05 3e
       -0.08867406 -0.0069438126 -0.07143219 0.13017435
000200 e7 e7 97 3d e2 3d 34 3e 08 77 81 3d 2a 87 be 3d
       0.07417279 0.17601731 0.063215315 0.09303124
000210 54 26 db bd 27 d8 a6 3d cd 5d 06 be 2e 9c 6b bd
       -0.1070067 0.081466965 -0.1312172 -0.05752199
000220 6c 61 32 3e 54 9d 85 3e e8 51 27 3e d5 09 bd 3a
       0.17419976 0.26096594 0.16339839 0.0014422486
000230 30 86 08 3e 0d 76 1e be 24 0d f9 3c 07 74 bd bd
       0.13332438 -0.1547472 0.030401774 -0.09250646
000240 ae 8e 75 3e 24 db 82 be b8 87 3b 3d a4 63 b1 3c
       0.23980209 -0.25557816 0.04578373 0.021653958
000250 60 43 87 3d c2 a4 09 3a 1f 90 38 3e 85 31 ce 3d
       0.06604648 0.0005250686 0.18023728 0.10068039
000260 f2 9e 60 3e 94 5d 03 bd d8 22 e6 3d 1a 2f 24 3e
       0.21935633 -0.032071665 0.11237115 0.16033593
000270 8f b1 d3 3d df e1 7c be b0 b3 07 3e f4 fb d0 bc
       0.10336601 -0.24695538 0.13252139 -0.025510766
000280 16 a6 a7 bc ef 4e cd 3c a5 a1 03 3e 54 d5 88 bd
       -0.020464938 0.025062053 0.12854631 -0.06681314
000290 79 ae 98 3d a2 90 94 bc 6c 83 27 be 10 dc c7 bd
       0.07455153 -0.018135373 -0.16358727 -0.097587705
0002a0 50 3e a7 bc 92 9d b7 bc ff 50 0f 3d 61 cb 84 bd
       -0.020415455 -0.022414003 0.034989353 -0.06484104
0002b0 1c 62 48 3c a0 5f 11 3e 12 1c 96 bd 5e 05 bc bd
       0.012230422 0.14196634 -0.07329573 -0.09180711
0002c0 65 6b c1 bd 9f 53 74 be 22 c6 56 bd a5 d0 be bc
       -0.09444312 -0.23860024 -0.052435048 -0.023292849
0002d0 a4 3f 90 3c e6 ff 32 3e a7 df d4 bc 99 8c eb bd
       0.017608471 0.1748043 -0.025985552 -0.11501426
0002e0 50 b1 b5 3d 6f 17 71 3d a4 dd d0 3c 1b 92 7d 3d
       0.0887171 0.05886024 0.025496311 0.061906915
0002f0 f9 ca 6f 3b 4e 7a e1 3c 1f 7b 52 3e d3 a6 2e 3d
       0.0036589487 0.02752414 0.2055478 0.042639565
000300 2a 53 1a 3d a1 07 f7 3c 24 78 9c 3d 21 d0 c3 3c
       0.037676968 0.030155005 0.076401025 0.023902955
000310 16 76 25 3e 0f bb ea bc f8 a7 b7 bd 8a 26 c2 3d
       0.16158327 -0.02865365 -0.08967584 0.09480007
000320 e0 8a 55 3e b4 5d 87 3d 11 af 7f 3c 19 8e b9 3c
       0.20853758 0.06609669 0.015605704 0.022650765
000330 b0 8e 62 be 9c 2c a9 3d 98 5d 2f 3e 8b 01 62 3e
       -0.22124743 0.08260462 0.17125547 0.22070901
000340 b7 33 4e 3d 26 4d 75 bd b5 70 60 3d f8 91 a4 3d
       0.050342288 -0.059888028 0.054794986 0.08035654
000350 18 b8 05 be fc 2e d7 b8 44 76 0a bd ba 29 85 3d
       -0.13058507 -0.000102607504 -0.033804193 0.06502099
000360 40 35 39 bd 84 cc 31 3e 0d e5 5e bd 94 01 4f 3d
       -0.0452168 0.17363173 -0.05441766 0.050538614
000370 12 57 ad 3d c0 12 2d 3d 36 56 20 3e c5 9b 0c be
       0.08463873 0.04225421 0.15657887 -0.13731296
000380 5d 42 a8 3d 6a 99 3f 3d 94 c9 3b 3e 84 9b 1e be
       0.08215783 0.046777166 0.18338615 -0.15489012
000390 1e d5 9d 3d 91 5e 25 3e ea a3 ea bd 35 d0 80 3c
       0.077066645 0.16149355 -0.114570454 0.01572428
0003a0 98 1d 71 3d ba 54 5f 3d 95 e6 8c 3d 46 42 fe 3c
       0.058866113 0.05452416 0.068799175 0.031037461
0003b0 97 8c ad 3d a5 ec ad 3e d3 32 06 be ab b4 b8 bc
       0.08474081 0.33969608 -0.13105325 -0.022547087
0003c0 3f 70 93 3d 4c fe 0f 3e b4 15 a6 3c 72 f5 0f bd
       0.071991436 0.1406185 0.02027402 -0.035146184
0003d0 90 7e e0 bd 3c 81 79 3e 00 81 8d bd 4a 56 cd 3d
       -0.1096164 0.24365705 -0.069093704 0.10026224
0003e0 67 cd e8 bd 5e 32 8d bd 79 3f a0 bd f1 76 ad bd
       -0.113673024 -0.068943724 -0.078246064 -0.08469952
0003f0 7d 60 c2 3d cd 73 84 3d 4e d6 02 be 9f 4a b2 3d
       0.0949106 0.064674 -0.12777063 0.08705639

lstm.weight_hh_l0 f4 [800, 200]
000000 98 cf 1a 3e a9 58 4c 3b 18 66 ac bd 21 12 75 3c
       0.15118253 0.0031180775 -0.0841791 0.014957936
000010 04 6d 13 3e 6e 51 06 be 4b f6 89 3d 64 6a 5b 3e
       0.14397055 -0.13117 0.0673643 0.21427304
000020 8e 42 04 be 3d 7c a3 bd c3 ad b9 3d 09 9b 09 be
       -0.12916014 -0.07982681 0.090663455 -0.13438047
000030 21 68 82 bd 78 b0 62 be 3d 4d 5d bc 6f 7c 87 3d
       -0.06367517 -0.2213763 -0.013507185 0.06615531
000040 65 a9 01 3e c6 4e 21 3d 07 ed 6e 3d f4 d8 2b be
       0.12662275 0.039381765 0.058331516 -0.1678198
000050 23 41 18 3e 01 8b 59 3d 7b 64 42 3e 9d 19 88 bd
       0.14868598 0.05311108 0.18983643 -0.0664551
000060 82 f1 5f 3e 15 23 00 be ff fc d4 bd c9 5b da bd
       0.21869472 -0.12513383 -0.10399818 -0.10662038
000070 53 6f df 3d 7e bd 3e 3e 98 fa 1e 3e d1 1d 60 bd
       0.10909905 0.18626973 0.15525281 -0.054715935
000080 e3 ef 53 be 9e 52 72 3d 34 bf 35 3e 71 14 46 3d
       -0.20696978 0.05916082 0.1774872 0.04835934
000090 2c a1 9c bc 72 fc c9 bd c1 46 06 3e d5 e5 d7 3d
       -0.019119821 -0.09862603 0.13112928 0.10541884
0000a0 89 0e ad bc c1 d1 bd 3c 6e 08 bf 3d fc d3 d5 bd
       -0.021125095 0.023171308 0.0932778 -0.104408234
0000b0 35 c0 d6 bd 85 b7 30 3e bb 9b 00 3e 96 3e 8d bd
       -0.10485879 0.17257507 0.12559406 -0.06896703
0000c0 2a 95 6b bd a3 f5 fb 3d cd 16 05 3e f3 79 5b bd
       -0.0575153 0.12302711 0.12996979 -0.053583097
0000d0 67 5d 5e 3e 26 fd 19 3d 82 80 80 3d 23 ba 3a 3e
       0.21715318 0.037594937 0.06274511 0.18235068
0000e0 77 9f b1 bd ed ad 04 bb cd cb d6 bc 21 2a 0c 3e
       -0.08672994 -0.002024527 -0.026220227 0.13687946
0000f0 0e 6a 81 be ac ac c1 38 dc b2 47 3d bc 94 ba 3d
       -0.25276226 9.23512e-05 0.048754558 0.091104
000100 2a 4b 1f be 1b ff c8 3d 08 5a 1f be 9d c6 cb 3d
       -0.15556017 0.098142825 -0.15561688 0.09949992
000110 ae 0a 98 3d 72 91 2a 3d 41 f2 94 bd 33 cb 98 bd
       0.07423912 0.041642614 -0.07272769 -0.07460632
000120 ed b1 81 3d 2b 5d 7d 3d 5a aa 6c bd ff c5 38 bc
       0.06332765 0.06185643 -0.057779647 -0.011277675
000130 90 3d f3 bd 40 27 a1 3c 2d ee 3a 3e da 0b 37 be
       -0.118769765 0.019672036 0.1825492 -0.17875615
000140 19 f7 d1 3d a8 88 5d 3e c7 16 e8 bd f8 3c fb bb
       0.10252208 0.21634161 -0.113324694 -0.00766718
000150 5b dd b4 3c 65 d5 c8 bc be 8f 93 bd 63 47 81 bd
       0.022078207 -0.024515817 -0.07205151 -0.06312444
000160 e9 7a 02 3d 78 97 61 bd 8c e7 f6 3a 9a b7 27 bc
       0.031855498 -0.055076092 0.0018837317 -0.010236645
000170 12 b5 31 3e 19 50 51 3d 82 37 28 3e 75 09 fa 3d
       0.17354229 0.051101778 0.16427425 0.12208835
000180 f0 70 0e be 7a 6a 02 3e 6b f7 cb 3d 07 6c 85 bc
       -0.1391027 0.1273593 0.099593006 -0.016286863
000190 1d 9d f4 bd 4c 0f 87 bd fe 69 e9 bd 82 29 53 3c
       -0.119440295 -0.065947145 -0.113971695 0.012888314
0001a0 0d e0 e0 3a 46 c0 dc bb 07 96 eb 3d 95 b7 37 3d
       0.0017156616 -0.006736788 0.11503225 0.04485281
0001b0 63 a8 07 be 1d dc 9e 3d 4b 54 87 bd e7 c1 03 3e
       -0.13247828 0.07756827 -0.066078745 0.12866937
0001c0 aa ef 04 3e dc 1d 27 be ad 26 2f 3e 66 d0 e0 3d
       0.1298205 -0.16319984 0.17104597 0.10977249
0001d0 f8 67 46 be 56 d4 2e bc ba 18 33 bd 6d 31 00 be
       -0.19375598 -0.010670742 -0.043724753 -0.12518854
0001e0 44 65 59 3e 73 9c 2b be cf 52 fa bd fd 20 b5 bd
       0.21230036 -0.167589 -0.12222826 -0.08844183
0001f0 2f 1c 37 bc 4a a1 81 be d2 3b ea 3d bd 5f cc bd
       -0.011176153 -0.25318366 0.11437191 -0.09979198
000200 5a b9 3b be 49 1f bb bd 0c 27 b3 3d 11 55 62 3d
       -0.18332425 -0.091368265 0.08747682 0.055256907
000210 f1 35 a4 3d b8 89 fe 3d d4 aa bc 3c 37 ff 4e be
       0.08018101 0.124286115 0.023030676 -0.20214544
000220 76 d4 72 bd 47 50 9c 3d 79 26 32 be 95 97 c0 3d
       -0.05928465 0.07632499 -0.17397489 0.09403912
000230 5e b8 0a 3e 5d ec 5c 3d 88 f5 c1 bc 28 a5 db bd
       0.13546893 0.05393635 -0.023676649 -0.107248604
000240 99 b5 9f bd 0e a6 14 3e a3 8d f2 bd c7 2d ca 3d
       -0.07798309 0.1451647 -0.11843421 0.098720126
000250 5e a0 da 3d 93 24 ad 3d e5 a0 55 3d bc c9 65 3e
       0.10675119 0.084542416 0.052155394 0.22440237
000260 72 8d 13 b9 e3 f4 76 bd 82 dc 0d bc 40 fe 21 3e
       -0.00014071705 -0.060292136 -0.00865853 0.15819645
000270 2f 49 26 3e 8d dd b3 bd 86 04 2f 3b 57 a5 b0 3c
       0.16238855 -0.08782492 0.0026705577 0.021563215
000280 e3 84 c6 bd 76 76 e5 bd 6c d5 00 be 9c af f6 3b
       -0.09693315 -0.11204235 -0.12581414 0.0075282585
000290 88 b9 37 3e 98 76 95 bc 81 1c f7 bd de d5 81 3d
       0.17941868 -0.018245026 -0.120659836 0.0633962
0002a0 89 b8 27 3e e3 98 39 3d 97 36 fd bc b3 1c 00 3b
       0.16378988 0.04531182 -0.03090982 0.0019548356
0002b0 5f d9 40 3e 7d a6 aa 3d c2 c2 42 3d ea 14 30 be
       0.1883292 0.08332536 0.047549017 -0.17195478
0002c0 d3 20 44 bd 58 e7 a2 3d 03 f4 ed bd ee a5 32 be
       -0.047882866 0.079542816 -0.11618807 -0.1744611
0002d0 32 18 3f be 08 d8 b5 3c 9b 55 41 be 5e a2 1b 3e
       -0.18661574 0.022197738 -0.18880312 0.15198657
0002e0 9f eb 09 bc 73 fc 94 3d 2b f7 c0 3d 88 13 64 3e
       -0.008417993 0.07274713 0.094221435 0.22273076
0002f0 89 f5 bf bd da 76 8e 3c d0 53 61 be cf 13 aa 3c
       -0.09373004 0.017390657 -0.22004628 0.020761399
000300 da f1 4d be 82 b4 1a 3e 45 d1 d2 bd ba 37 47 3c
       -0.2011179 0.15107921 -0.10293821 0.012159282
000310 88 10 2c be 24 42 0f 3d 80 d3 ee 3d 3e ed 72 be
       -0.16803181 0.034975186 0.11661434 -0.23723313
000320 32 b6 6a 3d 3b c6 a5 bd a1 c8 a5 bc d8 f5 ec 3b
       0.05730266 -0.0809445 -0.020237269 0.0072314553
000330 8d 59 8e bd 1e 11 a3 bd 77 80 58 3d 40 68 69 3d
       -0.06950674 -0.07962249 0.05285689 0.056984186
000340 00 68 5f bd 35 d9 91 bc 76 d2 74 bb 15 c9 93 bc
       -0.05454254 -0.017803768 -0.003735689 -0.01804022
000350 a9 24 2d 3d d7 12 c9 bc f0 13 b3 bd 84 bf 3e bd
       0.04227129 -0.024545116 -0.08744037 -0.046569362
000360 7f 7d 86 bd ca 77 77 3d fc 00 82 3d 32 6e 6e bd
       -0.06566905 0.060416974 0.06347844 -0.05821056
000370 cb 3e 85 3d 86 5d fd 3c f1 94 d6 3c 4b 4b f3 bb
       0.065061174 0.030928385 0.026194068 -0.007424747
000380 18 23 80 bc c1 72 68 3d 28 3a 64 3d 58 61 1e 3d
       -0.015641734 0.056750063 0.055719525 0.038667053
000390 34 07 be bc bc f1 5f 3d 33 a8 ac bc 6e 53 2d bd
       -0.023196794 0.054673895 -0.021076297 -0.042315893
0003a0 94 6d a3 bc cf a1 6b bd 4f 25 06 3c a9 34 af bc
       -0.019949712 -0.05752736 0.008187606 -0.021387415
0003b0 14 6c dd 3c eb 25 89 bd 96 18 7d 3b 04 68 ac 3c
       0.027029075 -0.066966854 0.003861939 0.021045692
0003c0 2e 0e 20 bc cc 10 87 3d a0 f7 19 3c ef ff b2 3b
       -0.009769006 0.065950006 0.009397417 0.0054626386
0003d0 4d 62 65 bd 9b 79 bd 3c 08 db 31 bd ba 30 50 3c
       -0.05600195 0.023129275 -0.043421775 0.01270693
0003e0 ec 9b 56 3d 9b 28 fd bc 42 90 8f bd fa 06 54 bd
       0.052394792 -0.030903151 -0.07009937 -0.051764466
0003f0 28 55 11 bc 6c ef 7b 3d 1a ab 9a bd be 35 2b bd
       -0.0088704005 0.061507627 -0.07552166 -0.0417993

lstm.bias_ih_l0 f4 [800]
000000 e4 92 01 3d a4 f0 95 bd 25 44 69 bc ad cb 57 bd
       0.031634226 -0.07321289 -0.014237438 -0.052684475
000010 7f ba 9d 3c 74 f8 dc 3c aa 1d e1 bd 24 dd b2 3b
       0.019253967 0.02697394 -0.10991986 0.005458491
000020 bb 74 04 3d 3f 99 4b bc 63 62 88 bd 05 9c a3 3c
       0.032337885 -0.012426673 -0.06659391 0.019971857
000030 98 b3 4f 3d 95 0e 6a bd b6 44 96 bd 22 ac 12 3d
       0.050708383 -0.057142813 -0.07337324 0.03580869
000040 0e b4 1f bd b6 62 db bc dd 4e 83 3d 23 91 58 bb
       -0.038990073 -0.026780467 0.06411526 -0.0033045493
000050 d2 e4 35 3d 01 1b 07 3e 97 74 99 bd 5b 7a fc bb
       0.044407673 0.13193895 -0.07492941 -0.0077050156
000060 70 72 cf 3b 38 3b c6 bb 36 90 9d 3d 68 c3 de bc
       0.0063307807 -0.00604954 0.07693522 -0.027192786
000070 ba f2 3c 3d 71 fa 7d bd b7 f1 6c 3c 91 bb e3 3c
       0.04612992 -0.062006418 0.014461926 0.0277994
000080 58 61 ba 3c e9 0e e4 bb c9 4d 79 3d 2c 90 a9 3c
       0.022751495 -0.0069597852 0.060865197 0.02069863
000090 a4 76 e1 bd 1e 84 b7 3d 61 0a b1 3c 67 ca df bc
       -0.11008957 0.08960746 0.021611394 -0.027318193
0000a0 cd 46 6d bd b3 8e cb bc 2c 53 35 bc 71 7c c5 3b
       -0.05792885 -0.024848318 -0.011067193 0.0060267975
0000b0 d4 6f 50 bd 50 04 8d 3c 12 85 0f 3d 69 d4 1d bd
       -0.050887898 0.01721397 0.035039015 -0.03853265
0000c0 1d 14 8e bc d4 96 93 3c 3a cf a9 3d 3e 80 31 bb
       -0.017343575 0.018016256 0.082914785 -0.0027084495
0000d0 80 f7 d6 bc d1 20 85 bd bd 57 1d 3d 36 19 5d bd
       -0.026241064 -0.065004 0.038413752 -0.05397912
0000e0 db 38 e9 3c 7f cf 9a 3d 5a 9e f9 3d 8e 25 52 bd
       0.028469494 0.07559108 0.12188406 -0.051305346
0000f0 7b 7b 24 bd 7d 50 8d bd ee 00 a1 bd 78 0e 54 bb
       -0.040156823 -0.069001175 -0.078615054 -0.0032357257
000100 66 3b 83 bb cb fe 55 bc 2c 8f 52 bd 94 57 4e bd
       -0.0040048836 -0.013061236 -0.05140607 -0.05037649
000110 c9 54 80 3c 9c f0 6b 3d 72 b2 b2 bc 62 87 8d bd
       0.015665429 0.05760251 -0.021813605 -0.06910588
000120 0a 98 40 bd e8 fe 24 bb 71 75 9c bc 46 d9 66 3d
       -0.047019996 -0.002517635 -0.01909897 0.05635955
000130 fc bd 94 bd 91 70 c5 bc f7 8a 42 bc 7e 1c 17 3b
       -0.07262799 -0.024101527 -0.011873952 0.0023057754
000140 c8 94 9d 3d 1e eb ad 3b a5 c1 7e bc 1d 87 b5 bc
       0.076943934 0.005307569 -0.015549098 -0.022159154
000150 13 fc 46 3d 65 ae 1a bc e4 b7 cc 3c b9 39 12 bd
       0.04858024 -0.009440993 0.02499003 -0.03569958
000160 c3 de f2 bc 63 04 93 bd 0b f5 5c 3c 7d 53 e0 3c
       -0.029647237 -0.07178571 0.013486157 0.02738356
000170 26 58 02 3d 58 64 59 bd 7d 4d 2f bd 50 f9 b2 3c
       0.031822346 -0.05307421 -0.042798508 0.021847397
000180 a5 ea 8a 3c 86 fb 31 bb 36 29 5c 3c aa 75 dc 3c
       0.01695759 -0.0027157976 0.01343756 0.026911575
000190 b2 d4 cf bc 35 82 86 bd 9c 6c 96 3d 73 4e 03 bd
       -0.025369976 -0.06567804 0.07344934 -0.032057237
0001a0 50 ab 38 3d 9d f5 32 bc f8 db c4 3c 1e 5e 77 bb
       0.04508525 -0.010922817 0.02403067 -0.0037745307
0001b0 82 f2 c1 3a 9d ef 7a bc af 17 81 bd 62 3b 00 bd
       0.0014797004 -0.015315917 -0.063033454 -0.031306632
0001c0 a2 88 8d 3d 37 8c f4 3c 54 65 5b bd 7a 2e 44 3c
       0.06910826 0.029852016 -0.05356343 0.0119739715
0001d0 db f8 4a 3d f7 10 31 3a 4a 37 4a bd 3b 9f ca bc
       0.049553733 0.0006754542 -0.049369134 -0.02473413
0001e0 eb 7a d2 3b 82 8a 18 bd 20 08 e6 bb 23 17 81 bd
       0.0064233444 -0.037241466 -0.0070200115 -0.06303241
0001f0 1a 01 f9 bc 02 a5 16 bd 05 59 5b 3a 1a 55 16 bc
       -0.030396033 -0.036778457 0.0008367452 -0.009175563
000200 56 d4 60 bd cd e8 e2 3d 9a a4 6e 3d e3 73 c7 bc
       -0.05489 0.110795595 0.058262445 -0.024347251
000210 7d 73 4b bd 91 2d d1 3c 0f ad 04 3d 92 1e be 3c
       -0.049670685 0.025534423 0.032391604 0.023207936
000220 6d af 46 3d d7 c9 82 3e 9f 83 08 bd 6d d7 46 3c
       0.048507143 0.25544617 -0.03332865 0.012136322
000230 6a 61 03 bc 83 0e f8 bc 78 d9 59 bd 8d 93 3d 3d
       -0.008018831 -0.030280357 -0.05318591 0.046283294
000240 13 26 e0 3d 28 fd 16 bc c4 fd e8 3c 01 b0 7b 3d
       0.10944762 -0.009215631 0.028441317 0.061447147
000250 74 66 0b bd 92 28 95 bb f1 f6 82 bd 5f ae df 3c
       -0.034033254 -0.0045519555 -0.063947566 0.027304826
000260 00 3c 23 3d e0 90 b6 bc aa cb 3e bd 7f bb b7 bc
       0.039852142 -0.022285879 -0.046580948 -0.022428272
000270 bc b3 04 3d 8b 28 bd bc 43 c5 84 bd 49 bc 99 bd
       0.03239797 -0.023090621 -0.06482937 -0.07506616
000280 ee 5f 8c bd 1b 03 2c 3d b5 79 95 bb 12 5a 78 bd
       -0.06854235 0.04199515 -0.0045616277 -0.060632773
000290 02 75 a0 bd ff bd bf bc cf 94 cb bc f0 f4 50 bd
       -0.078348175 -0.023406027 -0.02485123 -0.05101484
0002a0 1c 92 1f 3d 9b 7c 40 bd 99 8c ef 3d c6 e9 96 bd
       0.0389577 -0.046993833 0.11696739 -0.073688075
0002b0 22 b9 33 bd af 9d 60 3d d3 ca 8e 3c 59 93 42 3d
       -0.04387773 0.05483788 0.017430698 0.047503803
0002c0 dd 93 fe bb 24 e8 bb bd 67 4f 99 bc f8 dc 3c 3d
       -0.0077690915 -0.09175137 -0.01871462 0.04610917
0002d0 c8 e6 1e 3d 6f 9b 27 bd b3 79 38 3d 0d f9 87 bd
       0.03879431 -0.040919717 0.045037936 -0.066392995
0002e0 a5 bb 29 bd 16 e0 4b ba a6 4c 5e bd 90 50 5a bd
       -0.041438717 -0.0007777227 -0.054272316 -0.053299487
0002f0 d6 95 93 bd f9 ed 5a bd b1 29 87 3d d6 97 e3 3c
       -0.07206313 -0.053449605 0.06599749 0.027782362
000300 5a a0 4d bd 83 58 d1 3c 1a 90 33 3d 72 3d 27 bc
       -0.05020175 0.025554901 0.043838598 -0.010207521
000310 75 c3 82 bc 94 33 48 bd fb ff 16 bd 2e 0c cd bc
       -0.015962342 -0.048877314 -0.036865216 -0.025030222
000320 fc f0 47 3e be a4 ed 3c f8 65 8d 3d d9 c5 71 bd
       0.19525522 0.02900922 0.069042146 -0.059026573
000330 37 28 81 3d f1 22 9e 3c ed 7d 85 bc 7a d3 7d bc
       0.063064985 0.01930377 -0.016295398 -0.0154923145
000340 e2 45 8d bd 12 f3 e3 3c 63 9a 90 3d 6d d5 7a 3d
       -0.06898095 0.027825866 0.07060697 0.061238695
000350 a2 ac 5a 3d 2f f4 93 bc d3 dc 89 bd 3b ad da 3c
       0.05338729 -0.018060772 -0.06731572 0.02669393
000360 07 d9 5b 3d be ae 74 3c 1f 8f 7e 3d a1 ee 49 bd
       0.05367377 0.01493424 0.06214821 -0.04929984
000370 ef 21 5a bd 29 d7 ab 3d 30 e5 9d 3b 5e e9 e0 3c
       -0.053255018 0.08390648 0.004818581 0.027455028
000380 d1 b2 73 bd a6 61 94 bd 5a 96 a6 3d e9 83 59 bd
       -0.059496704 -0.072451875 0.08134146 -0.053104315
000390 df a1 8c bd 43 c1 a2 3c 5c 77 5c bd 39 23 80 bc
       -0.06866812 0.019867545 -0.053824767 -0.015641795
0003a0 ce b2 1d 3d 62 7b 33 3d 94 a3 1f bb e0 b3 fa 3a
       0.0385006 0.04381884 -0.0024358975 0.0019127093
0003b0 e7 7b 91 bd 81 e4 bc 3d c4 48 5c bd 1a 0e 83 bd
       -0.071037106 0.09223271 -0.053780332 -0.06399174
0003c0 a9 62 34 3d 6b 8a 77 bd 44 19 a8 3b 5a ff eb 3c
       0.044039402 -0.06043474 0.005129965 0.028808285
0003d0 94 7e 51 bd ee e4 30 3d 42 90 2d 3d a1 f3 17 3d
       -0.051146105 0.043187074 0.042373903 0.037097577
0003e0 e5 b1 31 bc 01 e5 06 bc a9 7f 8a 3c 59 06 a9 bd
       -0.010845636 -0.00823331 0.016906576 -0.08253164
0003f0 f0 1c 16 bd 45 82 a2 3d ea 61 89 bd d6 0c aa 3b
       -0.03664869 0.07935003 -0.06708129 0.0051895184

lstm.bias_hh_l0 f4 [800]
000000 94 8c af 3c 79 df 83 bc 2c ae 94 3d 5c 1a 22 3b
       0.021429338 -0.016097771 0.07259783 0.002473495
000010 ab 64 ea 3b 8e da ca 3b d9 bb 15 bd 5a a2 c6 bc
       0.007153114 0.0061906045 -0.0365561 -0.024247337
000020 77 51 68 bc 03 6c f2 3c d5 46 20 bd 68 55 b1 b9
       -0.014179579 0.02959252 -0.03913005 -0.00033823703
000030 dd 60 2f bd ea 29 13 bd 9f 89 67 3d 4b ea 59 bc
       -0.042816985 -0.035928644 0.05652773 -0.013300489
000040 b0 5e 57 bb 87 e1 d5 bd c0 be 56 3c de d0 48 bd
       -0.0032862835 -0.104434066 0.013107002 -0.049027316
000050 fc 74 a0 bd ac 03 45 3e 36 63 0a bd ce 44 2d 3d
       -0.07834813 0.19239682 -0.03378602 0.042301945
000060 77 06 e6 bc 11 d9 a1 3d c0 fc 2c bd 79 e6 75 3b
       -0.028079255 0.0790273 -0.04223323 0.0037521406
000070 f3 16 8b bd 50 27 10 3c 3f 04 e2 bc 6d 19 75 bd
       -0.067914866 0.008798435 -0.027589915 -0.0598387
000080 82 fd ea 3c d2 80 c2 3c 4f ec 27 bc a8 44 10 bc
       0.028685335 0.023743067 -0.010249211 -0.008805431
000090 83 58 12 3c 98 c8 94 3d 60 30 87 b8 c1 6e 95 bd
       0.008932236 0.07264823 -6.446312e-05 -0.07296515
0000a0 d1 6b 85 bc 90 79 a9 3c a1 07 60 3d fd 2b 8a bd
       -0.016286762 0.020687848 0.054694775 -0.06746671
0000b0 59 2d cc bc e7 af 31 bd d0 b2 67 bc 55 9d 67 3c
       -0.024923967 -0.043380644 -0.014141753 0.014136632
0000c0 23 7d 86 bd b5 56 2e bd 05 ea a6 3d ad 04 70 bd
       -0.06566837 -0.04256316 0.081501044 -0.05859821
0000d0 22 a6 1b bc f7 fb 04 3d 6e 8b 14 3d fc a0 c6 bd
       -0.009500058 0.032466855 0.036265783 -0.09698674
0000e0 1e 54 58 3a 6c e1 80 3d 89 6e 09 3e 36 ca cb bc
       0.00082522805 0.06292996 0.13421072 -0.024876695
0000f0 f6 85 e8 3b b9 7e ef bc a0 41 04 3d 95 e5 08 3b
       0.0070960475 -0.02923523 0.032289147 0.0020888795
000100 45 aa 86 bc ea 70 8a bd 7c 65 41 3d fd f5 9c ba
       -0.016438613 -0.06759818 0.047215924 -0.0011975166
000110 bf 06 cc bb b6 3b 6c bd f8 e8 49 3d ab 08 5e 3d
       -0.00622639 -0.057674132 0.049294442 0.054207485
000120 09 ef 0f 3d 86 e9 6c bd ae 1a 38 3d 53 a4 24 bc
       0.03514007 -0.057839893 0.04494732 -0.010048944
000130 c2 ee b1 3c 89 8a e7 bb 18 31 88 3d e8 68 28 3d
       0.021720294 -0.007066075 0.06649989 0.04111567
000140 43 44 8c 3d 52 6b 58 bd c0 91 29 3b d6 9b 25 bd
       0.068489574 -0.052836724 0.0025874227 -0.04043182
000150 e3 f2 18 3d 06 53 58 3d 5d 8c 48 bd b4 3b dd 3c
       0.03734101 0.052813552 -0.048961986 0.027006008
000160 5e 87 84 bd 6f 2f 32 3d 6b 40 67 bd 0d 71 1b bd
       -0.06471132 0.043502267 -0.056457918 -0.03794961
000170 1c 58 22 3b 20 b9 3e 3b 23 cb 85 3d 3a a6 b3 3d
       0.0024771756 0.0029102042 0.06532886 0.087719396
000180 3b 21 30 3d 25 f1 42 3d 48 e9 98 3d 53 68 c5 bc
       0.04300044 0.047593255 0.0746637 -0.024097597
000190 8e ea 45 3d 97 7d 6b 3d b5 ab 3b bd 70 c0 87 bc
       0.048319392 0.05749282 -0.04581805 -0.016571254
0001a0 77 0c d9 3c bf 03 24 3d 3a e1 aa bc 4b 4e 45 3c
       0.026495202 0.040042635 -0.02085935 0.012042592
0001b0 72 17 92 3c aa 81 2a bb a5 a0 58 3c 36 90 cf bb
       0.017833445 -0.0026017227 0.013221894 -0.00633433
0001c0 6e 76 13 3e 5a f9 15 3c 37 70 a6 3c 3e d2 b4 3c
       0.14400646 0.009153688 0.02031718 0.022072908
0001d0 c8 0c 6c bb b9 c3 18 bd 89 9f 01 3d 39 c7 ea bc
       -0.003601836 -0.03729603 0.031646285 -0.02865945
0001e0 f8 ff b7 3d fe 7e 46 3d b9 a7 cf bc a5 11 bd bb
       0.08984369 0.048460953 -0.025348531 -0.0057699257
0001f0 4c 9e 35 3d 51 2a 9d bb 07 f5 f4 3c 2c ca 12 3a
       0.044340417 -0.0047963043 0.029901994 0.0005599584
000200 aa 4b b6 bc cd 43 f8 3d e1 3e f4 bc 6e e6 6b bc
       -0.022252876 0.12122307 -0.02981514 -0.0143982
000210 d7 fb ac bd f0 b8 43 bd 0d c1 88 bd 29 85 aa 3c
       -0.08446472 -0.047783792 -0.066774465 0.020815449
000220 50 12 be 3c 69 18 6f 3e 9d 99 7e bd 53 82 9d bc
       0.023202091 0.23349155 -0.062158216 -0.019227182
000230 7c 12 31 bd b3 c0 76 3d 2f 74 c9 bd 0e d2 32 3d
       -0.04323052 0.060242366 -0.098366134 0.043657355
000240 7f e3 92 ba 62 28 2c bb b6 a2 82 3d 92 27 6d 3d
       -0.0011206715 -0.0026269187 0.06378691 0.057899065
000250 f4 6e 39 3d 6c 49 26 bd fa 1a 93 bd 3b f1 1a 3c
       0.04527183 -0.040597364 -0.0718288 0.009456928
000260 88 bd fa 3d 46 47 51 3c a1 cc 99 bc bc 84 cc bc
       0.122431815 0.012773341 -0.018774332 -0.024965636
000270 6f 4c 34 3c fe 0d ac bc 9a 1f 2f 3d 57 5d f9 3b
       0.011004551 -0.021002766 0.042754747 0.007610004
000280 0e 98 8e 3c df c4 8e bd 6f 4c bf bc 3f ec e0 bc
       0.01740649 -0.06971144 -0.023351876 -0.0274564
000290 fc 7b a2 bd a6 da 47 3d 93 37 3f bc 92 96 10 bd
       -0.079338044 0.048792504 -0.011670965 -0.035299845
0002a0 a6 06 98 bd f9 02 85 3d 04 aa a5 3c f6 a5 89 bd
       -0.07423143 0.064947076 0.020222671 -0.06721108
0002b0 1a f3 7f 3d 70 66 d0 3c f3 b3 3d bc db 29 81 3d
       0.0624877 0.025439471 -0.011578548 0.063068114
0002c0 23 e6 18 3d 36 99 34 bd f0 5b 20 bd 7e 85 f5 3c
       0.03732885 -0.044091426 -0.03915018 0.02997088
0002d0 9f 65 21 bc 93 31 20 3c b8 49 03 3c cd c4 0c 3d
       -0.0098508885 0.009777444 0.008013181 0.03436737
0002e0 01 13 20 bd ce 1b 64 3d a2 9b 87 bd 46 8f 8e 3c
       -0.039080624 0.05569058 -0.066214815 0.017402302
0002f0 94 eb 41 3d b8 7c 50 bc 36 ae 91 3d a4 d9 44 bd
       0.047343805 -0.012725048 0.07113306 -0.04805912
000300 cf ca 8a bd 65 a7 72 3d f7 26 ba 3c 60 b6 cf bc
       -0.06776964 0.05924167 0.022723658 -0.025355518
000310 67 7c 28 bd 0f 93 1c bb 39 df 26 bd cd e6 50 bd
       -0.041134264 -0.0023891365 -0.040740225 -0.05100136
000320 de 1a 6e 3d 23 64 07 bd 94 23 02 3d 1d 95 6c bd
       0.05813109 -0.033054482 0.03177221 -0.057759393
000330 51 b4 5c ba e4 32 3a 3d 74 3e dd bb 0a 7e 06 bc
       -0.0008419203 0.04545869 -0.0067518298 -0.008208761
000340 af d4 a3 bd 03 c6 c7 3d 9b 69 a6 3c dc f2 01 3c
       -0.079995506 0.097545646 0.020314028 0.007931437
000350 6e f7 d0 3d 92 10 6d bd 7e 17 0b 3d 8c d8 1c 3d
       0.102034435 -0.05787713 0.03395795 0.038292453
000360 75 22 db 3c 02 72 c0 3c 31 27 29 bc 48 3c 48 bb
       0.026749829 0.023491863 -0.010324285 -0.0030553509
000370 54 c5 14 bd 78 64 f2 3d f6 29 8f bc d7 6d 5d bc
       -0.036321 0.11835569 -0.017476063 -0.013514957
000380 08 50 0d 3d 62 4f 20 3d e1 f4 ea 3d 7c a1 0b bc
       0.034500152 0.039138205 0.11472488 -0.008522388
000390 4c f1 da 3c 4e 0a 4c 3d 2d 60 11 bd d3 c6 33 bd
       0.026726387 0.049814515 -0.03549211 -0.043890785
0003a0 07 82 36 3d 51 5b 9e bd b0 c8 46 bd c9 b2 48 bd
       0.044557597 -0.07732261 -0.048531234 -0.048998628
0003b0 a5 a4 cb bd b9 87 0d 3d 76 14 85 bd cf e6 1a 3d
       -0.09943513 0.034553263 -0.06498043 0.037817772
0003c0 13 bc 7d 3d 8a 3d 0a bd 2d 0a 75 bc ce 6e 0f bc
       0.06194694 -0.033750094 -0.014956039 -0.008754445
0003d0 61 6a 85 bd a9 0e 9d 3d 62 27 3e bd 4d 49 96 3b
       -0.06514431 0.07668812 -0.046424277 0.004586375
0003e0 d2 6d 8e bd de 56 4e 3a a5 f2 96 3d 1f 2e c2 bd
       -0.0695454 0.00078712206 0.073704995 -0.09481453
0003f0 46 ce 2d bd 66 e9 9e 3b 20 a7 3f bd 15 79 4c 3d
       -0.042433046 0.0048496006 -0.046790242 0.04992016

lin.weight f4 [72, 207]
000000 23 9d 93 bd 92 88 57 bd 89 8f a3 3d 4f c2 2f bd
       -0.07207706 -0.052620478 0.079863615 -0.042909916
000010 4f 93 8f 3d 79 ef 79 bc ce bf aa 3d ce 72 96 bd
       0.07010519 -0.015254849 0.08337365 -0.07346116
000020 71 74 58 bd 2b bf 3a 3d a0 ae b4 3a 65 8b f4 bd
       -0.052845422 0.04559247 0.0013784952 -0.1194065
000030 8b 00 ad bd 64 33 39 bd 20 29 e9 bc ff 55 f0 3d
       -0.08447369 -0.045215026 -0.028461993 0.117351525
000040 b1 34 12 3d 94 df 5a 3d 06 0b 48 bd 76 69 cb bc
       0.03569478 0.053435877 -0.048838638 -0.024830561
000050 80 07 1e 3e 72 63 f8 3d 89 7c 03 3d 1a f2 28 bd
       0.15432549 0.12128343 0.032101188 -0.04124651
000060 67 9c 2d 3d 6c 88 1b be e1 17 b6 3d 1f 35 cc bd
       0.042385485 -0.1518876 0.08891273 -0.099710695
000070 5d a0 21 3d d9 69 bd bb 8b 83 d0 3d ff e1 2d bd
       0.039459575 -0.0057804403 0.1018134 -0.042451855
000080 1e 04 bd bd 67 ff 21 3e b6 d9 34 3e 1c 21 a6 bd
       -0.09229301 0.15820085 0.17661175 -0.08111784
000090 03 09 e0 3c 39 c6 24 be 27 54 01 3d 79 cc f8 3d
       0.027348047 -0.16091241 0.031574395 0.12148375
0000a0 ca fe 4a 3c 0e d8 a4 bc 37 c0 63 bc dd 84 25 3e
       0.012389848 -0.020122554 -0.013900808 0.16163965
0000b0 d0 27 cc bb 93 c0 06 bd 0c 24 31 bc c7 12 8c 3d
       -0.006230332 -0.032898497 -0.010811817 0.06839519
0000c0 58 59 8d bd 0a d0 d2 3c 93 53 b4 3d 5d 1d ab bc
       -0.069018066 0.025733966 0.08805003 -0.020888025
0000d0 25 3a 34 3e 52 10 1b bd 60 df e3 3d 6c be f0 3d
       0.17600305 -0.03785736 0.1112659 0.1175507
0000e0 38 62 b4 bd 34 44 fc 3c f1 d1 fd 3c dc d5 a3 3d
       -0.08807796 0.03079424 0.030983897 0.07999775
0000f0 b4 09 c8 bd 14 ea 4f bc 94 dd 0a 3e 85 9b 0a bd
       -0.09767476 -0.012690086 0.13561088 -0.03383972
000100 6b 7c 7e bd 6d 29 b1 bc 66 ba ac bd d1 14 83 3d
       -0.062130373 -0.021626199 -0.0843399 0.06400455
000110 6e 10 0a 3e 6e 6f 89 3d 7e b7 8d bd 26 1c 5b 3c
       0.1348283 0.06710707 -0.06919764 0.01337341
000120 2f 4b bf bd eb a7 31 bd d9 ad 85 bd c9 33 60 3d
       -0.09340512 -0.04337303 -0.065272994 0.054736886
000130 d4 b0 7c bd df bc f2 bc ce 36 d6 3d 5d bf 87 bd
       -0.061692074 -0.029631076 0.10459672 -0.066282965
000140 e2 d3 64 3e 3d 54 05 ba 41 f1 12 bd 2f 64 a4 3a
       0.22346452 -0.00050861 -0.03587461 0.0012542064
000150 c5 83 b5 bd 66 b2 7e be 78 37 89 3c 70 0c 8c 3b
       -0.08863024 -0.24872741 0.016750082 0.0042739436
000160 0a 96 16 bd 05 fa 56 3c e5 61 8b bc 6c d5 ba bd
       -0.036764182 0.013121133 -0.017014453 -0.09122738
000170 31 ae 89 3d 02 ef cc 3c 47 a9 8d 3d ce 93 11 3e
       0.067226775 0.025016312 0.06917053 0.1421654
000180 f2 b4 a4 bd c9 28 c1 3d 72 fd 13 3e a4 dd 9e 3d
       -0.08042325 0.09431607 0.1445215 0.07757118
000190 b9 eb 9e bd 81 98 12 bd 29 17 29 3c bd b0 50 3c
       -0.07759804 -0.03578997 0.010320463 0.01273745
0001a0 a1 09 8a 3d cb 72 f5 bd bb 39 f6 ba 13 db b6 bd
       0.06740118 -0.11984786 -0.0018785516 -0.08928504
0001b0 04 c3 3d be 9d 69 dd bd 58 32 85 bd 83 48 01 3d
       -0.18531424 -0.1081116 -0.06503743 0.031563293
0001c0 e2 8a d1 39 1f 12 c1 3d b5 7c 3c 3d 45 71 ab 3c
       0.00039967062 0.094272844 0.046017367 0.020928035
0001d0 0e 71 a6 bd 18 ea 8e 3c c4 43 b8 3c 2c 29 73 bd
       -0.08127032 0.017445609 0.02249325 -0.059365436
0001e0 da ba e5 bc e7 d1 d5 bd f4 a9 e7 bc 53 e8 b4 bd
       -0.0280432 -0.10440426 -0.028279282 -0.08833375
0001f0 f6 1f 0a bd 05 ae a9 bc 2b b7 77 3c e0 07 e0 3d
       -0.033721887 -0.020712862 0.015119354 0.10939002
000200 4a 7c 85 bd 80 5e 3c be a9 d4 71 3b 41 08 63 3c
       -0.06517847 -0.18395424 0.0036900437 0.013856948
000210 f9 9b 71 3d d5 5b 9f 3d d9 43 0b bd 6f 8f a7 bd
       0.058986638 0.077811874 -0.03400025 -0.08181655
000220 59 fb ac 3d ed e0 30 be e8 45 94 3d 81 28 c0 3c
       0.08446378 -0.17273302 0.07239896 0.023456814
000230 98 71 a1 3d 00 15 81 3d 9b fe 53 bd 01 50 2d ba
       0.078829944 0.063028336 -0.051756483 -0.0006611348
000240 6b ea c1 3d 62 65 85 3c fb 6b 0e 3d 99 02 f7 bc
       0.0946854 0.016283695 0.034770947 -0.030152606
000250 ef 16 4f 3d a1 71 b8 bc 8f 55 e0 3d 67 7d b9 3d
       0.05055898 -0.02251512 0.10953819 0.09057122
000260 26 8b f3 bd 26 b4 a2 3d de ba de bb 1d 8e 07 bd
       -0.11891775 0.07944517 -0.0067971786 -0.033094514
000270 37 74 02 bd 3d 43 21 bd f9 13 74 3d 81 5f 72 3c
       -0.031849112 -0.039370764 0.05958936 0.014793278
000280 84 a9 9c 3c 03 0c 1b bd 69 f8 31 3e bc c7 3e bd
       0.0191238 -0.037853252 0.17379917 -0.0465772
000290 a0 63 36 3d 1d 8c f3 3c 75 4c 92 bd ba 27 0c bd
       0.044528604 0.029729897 -0.07143489 -0.034217574
0002a0 f6 57 fa 3d af 8e d4 3d 85 22 02 3e 7b 3d 85 3c
       0.122238085 0.10378777 0.1270848 0.016264668
0002b0 02 90 ab bd 9b 5d 70 3d 93 f8 ac bc 6d 38 9c 3c
       -0.08377077 0.05868302 -0.021114623 0.019069875
0002c0 25 67 ab bd 92 65 fe 3d f3 77 d1 bd c9 5f 11 be
       -0.08369283 0.12421717 -0.102279566 -0.14196695
0002d0 54 4d 9a bc ba 09 a8 bd 6a 8d 8c 3d 02 e6 85 bd
       -0.018835701 -0.0820498 0.0686291 -0.06538011
0002e0 c7 bd f4 3c 16 23 14 3d 78 2b 6f 3c 4b f7 d1 3d
       0.02987565 0.036166273 0.014597766 0.102522455
0002f0 06 25 30 3d ea c7 34 bd 89 fe 89 3d a5 d2 d4 bb
       0.04300406 -0.044135965 0.06738002 -0.0064948373
000300 46 34 83 bd ca 33 51 3c 34 ab 2d 3d d4 95 15 be
       -0.06406455 0.012768695 0.0423996 -0.14607936
000310 b7 a1 08 3b 35 6a a2 bd 5b 2f 82 bd a3 ed ba bd
       0.0020848343 -0.07930414 -0.063566886 -0.09127357
000320 79 24 02 3e 44 5a 83 3d be 4f 58 3d 52 0e 47 3d
       0.12709226 0.06413701 0.052810423 0.04859764
000330 da 81 3a 3d e5 d6 ad bd fe 68 19 be 56 1c 15 3e
       0.045533992 -0.084882535 -0.14981458 0.1456159
000340 82 ce 75 3c 54 87 8f bd f0 d0 06 bb da c1 19 be
       0.015002849 -0.07008234 -0.0020571314 -0.15015355
000350 4f 61 11 be 17 4c 8d ba 49 92 ba 3d bd 89 97 bc
       -0.14197277 -0.0010780123 0.09109933 -0.018498296
000360 af a3 db bd f9 36 17 bd bf 58 29 3d 85 90 0a 3b
       -0.107245795 -0.03691766 0.0413444 0.002114327
000370 a9 f9 fc 3c 61 1d d9 bc c6 4a 90 3c c0 74 76 bd
       0.030880766 -0.026503267 0.01761378 -0.060169935
000380 f4 28 26 3d 5c 67 54 bc 1c b1 b5 ba ae b9 08 bd
       0.0405664 -0.012964096 -0.0013861987 -0.033380203
000390 a8 e3 97 3c 13 9b 70 bd e6 f5 9d bc b3 73 05 3b
       0.018541172 -0.05874164 -0.019282293 0.0020363152
0003a0 7f 80 78 3d 18 72 91 bc 49 11 d5 3c 0f 79 93 bd
       0.06066942 -0.0177546 0.026009219 -0.072008245
0003b0 a4 9f cc 3c 4a 56 2f bd 3f 56 b6 3d a6 81 a3 bd
       0.024978466 -0.0428069 0.08903169 -0.07983713
0003c0 7f e6 77 bd e8 ef c3 bd 27 7d 8c bd 90 2c 00 bd
       -0.060522553 -0.09567243 -0.068598084 -0.031292498
0003d0 87 c8 b3 3b 66 0c 47 be 71 29 91 3c c8 b7 e0 3c
       0.005486551 -0.19438323 0.017719956 0.027431384
0003e0 b6 af aa bd 62 ef 07 bd f8 8c d8 3b 42 a4 57 3c
       -0.083342955 -0.033187278 0.0066086017 0.013161721
0003f0 17 83 a5 3c f5 60 62 ba ac 24 19 3d 5e 33 47 bd
       0.02020411 -0.00086356635 0.03738849 -0.048632972

lin.bias f4 [72]
000000 13 d8 ab bc fa a4 1e 3d 8e 41 3c bb 07 6d 90 bd
       -0.020977056 0.038731553 -0.0028725597 -0.07052045
000010 3f 20 ba 3c 5e 64 94 bc e9 90 86 bd 6a c1 93 bd
       0.022720454 -0.018114265 -0.06570608 -0.07214625
000020 84 ab cd bc c0 6a 6e 3d c9 cc 5c 3c 33 4a b3 3c
       -0.0251062 0.058207273 0.013476559 0.021885967
000030 3a 19 27 3c a2 e5 07 bd 7e e0 e4 bc 43 2c 40 bd
       0.010198886 -0.03317798 -0.027939077 -0.04691721
000040 7c a1 15 be 2f 10 9d 3d a6 9f 00 3d b1 07 b0 3d
       -0.14612383 0.076691024 0.031402253 0.08595217
000050 7f 17 7c bd 76 81 8f 3b 2b 88 35 3d 22 c5 9b 3d
       -0.061545845 0.0043794466 0.044319313 0.076059595
000060 9b 59 18 3d 00 c4 ca 3c d6 93 86 bb 47 b2 11 3d
       0.03719483 0.024751663 -0.004106979 0.03557041
000070 26 d9 67 bd fe cd 09 bd 24 9a ca bd 59 1d ab 3c
       -0.056603573 -0.033643715 -0.09892681 0.020888017
000080 a1 28 f5 bc 37 69 98 3c d2 63 12 3d 3c 72 c2 ba
       -0.0299266 0.018604858 0.035739727 -0.001483507
000090 5d 99 ce bc 02 68 b5 3d d7 c1 9c 3a 82 ca 52 3d
       -0.025219614 0.088577285 0.0011959624 0.051462658
0000a0 85 25 ba 3d de cb c8 bb 1e 63 ab 3c 2d c3 87 3d
       0.090891875 -0.0061278185 0.020921286 0.06629024
0000b0 97 9d fe 3c cd b2 6f 3c 99 e4 7e 3c cd 5b d8 ba
       0.031081004 0.014630032 0.015557432 -0.0016506851
0000c0 a5 05 55 bd 5a 70 36 bb af 8a 29 bd 3a 55 1e bd
       -0.052007336 -0.0027837963 -0.041392025 -0.038655497
0000d0 47 6e 47 bd 46 59 f6 ba 54 ee 3f 3d 5f e3 5f 3d
       -0.048689153 -0.0018794916 0.046858147 0.054660197
0000e0 30 44 a1 3d 86 36 a9 bc 78 a7 dd 3c e8 4a 55 bc
       0.07874334 -0.020655882 0.027057394 -0.013018347
0000f0 2b d1 27 bd 0f ac b8 bc 54 a6 6a bd 4a ae 9d 3d
       -0.040970962 -0.022542981 -0.05728753 0.076992586
000100 8b a9 93 3d 5a 5e d5 3c 17 79 fd bc 7e da 7b bc
       0.07210072 0.026045967 -0.03094153 -0.015371917
000110 7f 8b 50 3d 0f 5f 9d bd 6a cb 0b 3d 86 7d a5 bd
       0.050914284 -0.076841466 0.034129538 -0.08080582

lin2.weight f4 [24, 72]
000000 53 b2 e0 bd c9 6b b9 3d 7e e5 17 be 21 e3 8e bc
       -0.10971513 0.090537615 -0.14833638 -0.017442288
000010 63 b3 22 3d b5 78 ba bd 87 b7 73 3d 55 97 3a bd
       0.039721858 -0.09105054 0.059501197 -0.045554478
000020 71 35 82 bc e8 ca d7 3d 68 f2 e1 bd 3a ee b5 bd
       -0.015894623 0.10536748 -0.110325634 -0.08883329
000030 c7 c3 8b bd c9 f5 21 be d7 8e 78 be 3f 87 31 3d
       -0.06824451 -0.15816416 -0.24273239 0.04334187
000040 f9 f2 a7 bd 48 ce 13 3e 18 56 6d bd 10 e5 05 bd
       -0.0820064 0.14434159 -0.057943434 -0.032689154
000050 96 a1 b4 bd e3 7a 3e bd 48 5c b9 bd 7e 3c 54 3d
       -0.088198826 -0.046503913 -0.090508044 0.051815502
000060 5a 19 08 3e d6 c7 21 3e ec d8 62 bc d6 af 27 3e
       0.13290921 0.15798888 -0.0138456635 0.1637567
000070 2d 61 39 ba 11 20 29 be 4b 2b 07 bb 81 e3 ab bc
       -0.000707167 -0.16516139 -0.002062517 -0.020982506
000080 10 95 98 bd 97 eb b4 3d d2 5e 09 3d a1 b4 d7 3c
       -0.074503064 0.08833998 0.033537693 0.026331248
000090 f0 37 17 be 90 1a c3 bd fe f1 cd 3d 89 3d 20 be
       -0.14767432 -0.09526551 0.10055922 -0.15648474
0000a0 5c ed b1 bb 23 ce b5 bd 99 40 0d 3e 22 51 cd 3d
       -0.005429907 -0.08877208 0.13794173 0.100252405
0000b0 dd c7 e4 bb 7c 51 3d 3e ea 58 6b 3d 9a fd fb ba
       -0.0069818334 0.18488115 0.057457842 -0.001922536
0000c0 ba da 46 3e d1 65 ac 3d 8f 28 9b 3d 23 eb 5b 3d
       0.19419375 0.084178574 0.07576095 0.05369104
0000d0 9c bf 91 3d 0e 00 49 3d a7 92 59 bc ef 2b 20 be
       0.07116625 0.049072318 -0.013279594 -0.1564176
0000e0 63 4e 01 3d 7d 8d 84 3d 3a 5b 3c 3c 12 20 d3 bd
       0.031568896 0.06472299 0.0114963595 -0.10308851
0000f0 da 47 91 bb 7c 6b 4d 3d 11 b9 fd 3d 83 d5 27 3d
       -0.004433614 0.050151333 0.12388814 0.040975105
000100 93 75 3f bb 32 de a7 3b a8 24 06 be 39 ef cf 3d
       -0.0029214367 0.0051229233 -0.13099921 0.1015305
000110 2d ee c1 3c ac 11 7e 3d d7 62 c6 3d 61 53 59 3b
       0.023673141 0.062028572 0.09686821 0.003316127
000120 41 e6 ba bd 62 1e 19 bc ed 38 1c be 8b e7 8b bd
       -0.09125949 -0.009345623 -0.1525609 -0.06831273
000130 a5 8e ac 3c c4 57 40 3d 7b b5 b1 bd bc a2 50 bd
       0.021064112 0.0469587 -0.08677193 -0.050936446
000140 b4 9d f6 3d 0e 7b 97 3b 30 1d f3 bd a3 0d ea 3c
       0.12041798 0.0046228236 -0.118708014 0.028570956
000150 aa 55 b7 3d 74 a2 06 3d 1a d7 a7 bd 4c fc 90 bd
       0.08951886 0.03286977 -0.08195324 -0.07079372
000160 fb 51 e7 bd d3 dd 00 3e 0f 8c 0a 3d be 14 c4 3d
       -0.112949334 0.12584619 0.033824977 0.09574269
000170 e0 9d a0 bd 78 90 8e 3d f9 c3 e0 3d 13 ae 19 3d
       -0.07842612 0.06961149 0.10974879 0.037519526
000180 80 aa eb 3d 31 83 48 bd a0 30 97 3b 9b fd d1 3d
       0.1150713 -0.04895324 0.004613951 0.102534495
000190 bf 43 15 3d 68 bd 4b be 31 b2 ad bc 0f 15 79 bd
       0.03644156 -0.19896472 -0.021203132 -0.0608111
0001a0 15 10 b0 3c 0c b9 bd 3d 05 62 c0 bd 4d b9 7c 3c
       0.021492044 0.092638105 -0.09393696 0.0154250385
0001b0 b4 d5 87 3b ef 9c 97 3c 31 8c 8b 3d 87 20 82 be
       0.0041453484 0.018507449 0.06813849 -0.2541544
0001c0 89 57 64 3d 79 70 e3 bd 6c f0 53 3e 7e e7 46 bd
       0.055747543 -0.11105437 0.20697182 -0.048560612
0001d0 ae 32 23 3d 2a 34 b5 3d 92 ac da 3d 27 da 2e be
       0.039843254 0.0884784 0.106774464 -0.17075406
0001e0 4f c1 57 3e b6 58 4a bc 11 29 06 bd 9a 08 25 3e
       0.21069835 -0.012350252 -0.032754008 0.16116562
0001f0 e0 ec 38 3e 75 de 32 3e 2c a1 5f bd 4e 12 2c be
       0.1805911 0.17467673 -0.054597065 -0.16803858
000200 e6 e4 a1 3d 1c 92 87 bd 7b ea 61 bd af 5f 16 bd
       0.07904987 -0.06619665 -0.05515526 -0.036712345
000210 45 99 96 bc cb ac 05 bd 3c 19 30 3c c6 52 86 bd
       -0.018383631 -0.03263549 0.010748204 -0.065587565
000220 e7 19 e7 3d 26 df a9 3d b0 f9 e5 bd f4 4c 52 3d
       0.11284237 0.08294515 -0.11229265 0.05134292
000230 82 03 e5 bc 07 68 0b bc ae cf 5d 3d 8b 7a b1 3d
       -0.027955774 -0.008508689 0.054153137 0.08665951
000240 1c 26 b4 bd 27 d5 e8 3d c6 84 6c bc be 2e 85 bd
       -0.08796331 0.113687806 -0.0144359525 -0.06503056
000250 16 ee 8e 3c 22 9c 04 3d ab af 2c bb e5 c2 bb bb
       0.017447513 0.032375462 -0.0026349823 -0.0057300203
000260 a1 e1 ee 3d 75 36 9e bc 1b 6d e3 bd f4 19 59 3d
       0.11664129 -0.019313077 -0.111047946 0.053003266
000270 4d d6 8a bd 58 47 c4 bc 69 c3 0f bb 07 5a 91 bd
       -0.06779156 -0.0239598 -0.0021936542 -0.070972495
000280 3f c9 07 bd d8 4e 8a 3d 0e 3e 14 3e 89 1c 8f 3d
       -0.033150908 0.067533195 0.14476797 0.069878645
000290 50 62 af bd be 62 1b 3e 93 86 ac 3d 56 07 a2 3c
       -0.085636735 0.15174386 0.084241055 0.019778889
0002a0 1a 0d c4 3b 29 47 02 38 ba ba 50 3d 14 9d b8 3d
       0.005983007 3.106069e-05 0.050959326 0.09014335
0002b0 01 48 a3 3d 09 b5 05 be fe 5a 64 3d 76 87 b0 bd
       0.07972718 -0.1305734 0.05575084 -0.08619587
0002c0 99 74 01 3e 01 88 c8 3d 5e 9f bb 3d c4 00 77 bd
       0.12642135 0.09791566 0.09161256 -0.060303465
0002d0 49 46 91 bd 94 a2 e6 3d 29 65 a6 3d 07 db 64 be
       -0.07093484 0.11261478 0.081247635 -0.22349177
0002e0 c7 2d d6 3d db 28 2a 3c f0 2a 21 3e bf cf 04 bd
       0.1045795 0.010385717 0.15739036 -0.032424685
0002f0 f1 fd 6a 3d 85 ba 0a 3e 3f 6c 5d bd d7 52 0b be
       0.057371084 0.13547714 -0.05405831 -0.1360582
000300 0f 31 26 be f1 e4 b4 bd 91 01 77 bd 88 dc 3b 3e
       -0.16229652 -0.088327296 -0.06030423 0.18345845
000310 1b 22 9e 3e 4b c8 f7 3d 1f 27 bd bd 7d 57 f1 39
       0.30885395 0.1209875 -0.092359774 0.00046032286
000320 b8 60 0e 3e 65 67 1c be 27 25 5e ba 61 b1 67 bd
       0.13904083 -0.15273817 -0.0008474164 -0.056565646
000330 b7 f0 89 bd 60 59 b4 bc d7 52 96 bd ff dd e6 3d
       -0.06735366 -0.022015274 -0.07340019 0.11272811
000340 88 1f 83 3d 96 52 e2 3d 50 60 1b 3b cc 56 0e 3d
       0.064024985 0.11050908 0.002370853 0.034750745
000350 20 90 41 bd 8a b0 4b 3d 2b f6 b0 bd 6d 01 c7 bd
       -0.04725659 0.049728908 -0.08640703 -0.09717069
000360 70 45 37 bc d6 74 34 3e 2f 40 a8 3d ac 88 d2 bd
       -0.011185989 0.17622694 0.08215367 -0.10279974
000370 85 fa ba 3b 8c 86 7b 38 6e a3 9e bd fa 71 f9 bb
       0.005706134 5.996837e-05 -0.077460155 -0.007612464
000380 14 de 42 3e 34 b8 88 bd 8e 96 f0 bd 1c 8e f6 bb
       0.19030029 -0.06675759 -0.11747466 -0.007524265
000390 b0 f0 86 3d f0 61 ea bc dd d3 17 bd 85 3c a7 bb
       0.06588876 -0.028611153 -0.037067283 -0.00510365
0003a0 df ab 12 bd f6 db 62 3d 8b 40 e5 3d 18 f1 80 bd
       -0.03580844 0.055385552 0.11193951 -0.06295985
0003b0 31 ac 7c bd 35 e8 92 3d c1 38 2a bd 88 8b 2d 3d
       -0.061687652 0.07173196 -0.04155803 0.042369395
0003c0 e7 37 2b 3e 83 1c 9f 3d 29 a6 f5 39 b5 17 16 3d
       0.16720544 0.0776911 0.0004685384 0.036643703
0003d0 91 9b b6 3d cc 7e 6a bc 7a 73 07 3d 0b 98 82 3d
       0.08916391 -0.014312457 0.03306911 0.06376656
0003e0 cc fe fc 3d c7 b8 c8 3d 4a 56 34 bd 88 04 50 3b
       0.12353286 0.098008685 -0.044027604 0.0031740982
0003f0 0e c5 d8 bc 72 c5 de 3d a9 2f ef 3d 0c ea a4 bd
       -0.02646115 0.108775035 0.11679012 -0.080524534

lin2.bias f4 [24]
000000 41 67 b5 3d 84 a7 a2 3c 27 bb f9 bc 84 90 07 3d
       0.08857585 0.019855268 -0.030484749 0.033096805
000010 31 c7 56 3d c6 5c 7d 3d 54 44 b1 3c ea d8 80 3d
       0.052436057 0.061856054 0.021639027 0.06291373
000020 8e 53 88 bd 40 71 3f bd ab 9f 9f bc 9e c2 e1 bc
       -0.06656562 -0.046738863 -0.019485315 -0.027558621
000030 7d cd 09 3c 5b cb 64 bd e9 d6 87 3d 0b 4c 64 bd
       0.008410809 -0.055857997 0.06632788 -0.055736583
000040 a8 e2 25 3d 5a 1d 85 bc c9 58 da 3c 58 69 65 3c
       0.04049936 -0.016249347 0.026653664 0.014002167
000050 64 df a3 bc 36 04 88 3d d4 0e c5 3d 6f 3e 46 3d
       -0.020003982 0.06641428 0.09621969 0.048399385
